loss_model.pt (torch, 188673 bytes, 10 tensors)

weight f4 [120, 4]
000000 f4 3b 82 be 01 28 45 3e 3c 9e 08 3e 7d 68 48 be
       -0.25436366 0.19253542 0.13341612 -0.19571109
000010 36 74 14 3f b8 c0 26 3f 95 ba 60 3f b0 48 27 3f
       0.57989824 0.65137815 0.877847 0.6534529
000020 4b 9f 8f 3d 30 59 8b 3e 9b bc f8 be 58 1d ac 3e
       0.070128046 0.27216482 -0.48581395 0.33616138
000030 eb 64 79 3e 06 af 0f 3f 3f aa 30 3e 9f 68 ba 3e
       0.24354903 0.5612644 0.17252444 0.36407945
000040 cd ec 64 3c 78 f4 42 3d 14 af 80 3e 9a 03 1f be
       0.013972473 0.047596425 0.25133574 -0.15528718
000050 e8 32 27 be d0 82 c6 be 53 b0 26 3e e4 ed 02 bf
       -0.16328013 -0.38771677 0.162782 -0.5114424
000060 22 50 1e 3e f0 67 ac 3b 7b 66 dd be 47 00 fd be
       0.15460256 0.0052614138 -0.4324225 -0.49414274
000070 70 c6 9c be 7c bf 2d 3f 75 81 36 3f f4 38 36 3f
       -0.30620146 0.67870307 0.71291286 0.71180654
000080 ac 4c b9 3d 7e 74 c1 3e c4 96 30 be d1 db 7c 3d
       0.09047827 0.3778419 -0.17245013 0.06173307
000090 6d 90 f9 3d 6e 32 8d be 8e 48 fb bd 87 42 91 be
       0.1218575 -0.27577537 -0.12269698 -0.2837107
0000a0 69 27 96 bd 2b d8 ab 3e 9c 81 a9 be a6 e3 b6 be
       -0.07331736 0.3356336 -0.33106697 -0.35720557
0000b0 59 b0 f6 3e ed a9 7b 3e a9 c7 47 3f 9b 86 6a 3f
       0.48181418 0.2457654 0.7803903 0.9161164
0000c0 28 08 f5 be fd fe 02 bf 87 94 c9 bd 4b 5a 32 bf
       -0.47857785 -0.5117033 -0.098427825 -0.69669026
0000d0 ad 58 d6 be 10 93 d9 3e f2 72 04 3e 98 d4 d6 bd
       -0.4186453 0.42495012 0.12934473 -0.10489768
0000e0 ce bd c3 be 86 04 1c 3d 1e 53 8b be 74 49 b5 bd
       -0.38230747 0.03809025 -0.2721185 -0.08851901
0000f0 62 15 d8 3d e6 8c a4 3e ab 35 38 3e 7b 71 17 3e
       0.105509534 0.32138747 0.17989223 0.14789383
000100 43 a5 d1 be 23 e7 ec 3e 85 be 65 3e b8 1d 9f be
       -0.40946397 0.46270093 0.22435959 -0.3107736
000110 27 9e ae bd 8e a4 c5 be 8d ec ec be d1 c5 26 3e
       -0.08526259 -0.38602108 -0.46274224 0.16286398
000120 c7 32 9a 3e b5 01 20 3e 5e c1 d7 3e 8c c4 48 be
       0.30116865 0.15625651 0.42139715 -0.19606227
000130 88 14 fb be ca 3a 7e bd 3c 69 7a 3e 4b f6 88 be
       -0.49039102 -0.062067784 0.24454206 -0.26750407
000140 5c 8f bb 3e 32 d2 d2 be 5a af 7b be 5d a9 09 3e
       0.36632812 -0.4117599 -0.2457861 0.13443513
000150 d8 36 17 3f a9 41 28 be 1a 0e 33 3f 79 91 ea 3e
       0.5906806 -0.16431297 0.6994339 0.45814112
000160 12 1a 4a be 42 6b 8b be 33 c7 eb be 67 81 f0 3e
       -0.19736508 -0.2723027 -0.46050414 0.46973726
000170 19 ad cd bc 0f 29 19 bd 0b 82 b2 be c7 28 0e bf
       -0.025106953 -0.037392672 -0.3486484 -0.5553097
000180 19 7a e2 3e b4 c7 7f be 75 3f 3f 3e 36 68 d6 be
       0.44233778 -0.24978524 0.1867655 -0.41876382
000190 08 1d 55 bd 00 be 89 be e0 40 53 bf 64 c0 91 be
       -0.05202964 -0.2690277 -0.82520866 -0.28467095
0001a0 b2 2d 51 3e 7e 46 dc bb b7 ae d5 be 8b 2c eb be
       0.20427588 -0.0067222705 -0.4173486 -0.4593242
0001b0 8f 81 15 bf 39 e3 33 3d ce e1 a0 3e f6 04 ca 3e
       -0.58400816 0.04391787 0.31422275 0.3945691
0001c0 23 67 73 be af ab 42 be 72 fe 35 be ae 17 f0 be
       -0.23769812 -0.19010805 -0.17772844 -0.46893066
0001d0 8f b7 7d be 43 be 4a bf 08 8a 34 bf 06 0d 0a bf
       -0.24777053 -0.79196566 -0.7052312 -0.5392612
0001e0 8c 9b 39 3e e2 eb b1 3d 9e 7d 42 bd 8e f3 ee be
       0.18125743 0.08687569 -0.04748308 -0.46670192
0001f0 a0 2d f2 be da 6f fc bc 92 f8 a7 be 35 59 6d 3d
       -0.47300434 -0.030815054 -0.32806832 0.057946403
000200 47 6e dd 3d 88 ec aa 3e 41 ac f6 3e a4 9e b4 be
       0.10812049 0.33383584 0.48178294 -0.35277283
000210 2a 4d 43 bf 64 ce c6 be c1 24 40 be 12 16 1b be
       -0.7628962 -0.3882934 -0.1876402 -0.15145138
000220 dd 08 11 bf 4d be 5a be 33 3f 4d 3e 41 87 04 bf
       -0.5665415 -0.21361656 0.2004364 -0.5176888
000230 ca 8f fd bc e5 e1 e7 3e 2d 30 e1 be d4 77 6a 3e
       -0.030952353 0.4528953 -0.43982068 0.22897273
000240 c6 8d 1e 3e 92 5b 43 bd e9 e0 5f be bc 5b 1b 3c
       0.1548377 -0.04769475 -0.2186314 0.00948232
000250 43 db 52 3d 31 2e 05 3f fd 05 a1 3e c8 4f 01 3f
       0.051478636 0.5202361 0.3144988 0.5051236
000260 bb b9 de be d4 cb f9 be a4 e9 3c 3b 17 82 2e 3e
       -0.43501076 -0.4878832 0.0028825784 0.17041813
000270 dd 47 a0 3e e9 b0 b9 3e 84 4d 28 bf 4b 45 ac be
       0.31304827 0.36267784 -0.6574328 -0.33646616
000280 0c b5 e6 3e aa c7 93 3d 3b 23 70 be 13 cd 29 be
       0.45060003 0.07215817 -0.2345094 -0.16582136
000290 61 0e 69 3e d4 a0 d7 bd da 20 8b 3e 5b e0 d4 3d
       0.22759391 -0.105287224 0.271735 0.10394355
0002a0 a5 3d fc 3e 59 44 29 bf 17 66 db be db 23 b4 be
       0.4926578 -0.66119915 -0.42851326 -0.35183606
0002b0 b9 24 26 3b 7f c0 18 be 21 54 e9 3e 71 99 19 3e
       0.0025351478 -0.14917181 0.45571998 0.1499994
0002c0 f2 41 c5 be 34 cb b5 3e d4 c4 40 be d6 d8 e4 3e
       -0.38526875 0.35506594 -0.18825084 0.44696683
0002d0 a3 3e 91 be ba ec f8 3d 58 3d 52 3e 0c 04 cb 3e
       -0.283681 0.12154527 0.20531213 0.39651525
0002e0 09 37 83 3e 7f ec b6 3d 72 3e 2b be df 75 c2 be
       0.25627926 0.08931827 -0.1672304 -0.37980554
0002f0 a7 60 e0 be eb b1 58 be b7 92 bf 3e 98 77 3b bd
       -0.4382374 -0.2116162 0.37416622 -0.04576835
000300 fe 59 73 3d 41 46 c9 bd 71 0b 04 be 33 6e 2c be
       0.059411995 -0.09827853 -0.1289499 -0.16838913
000310 23 a9 cc be 4b 4b 2a 3e 1c ad 8e 3e 02 5a 7d 3a
       -0.3997279 0.16630284 0.27866447 0.00096645963
000320 35 2d 51 be 0d 9f e9 3d a9 4b 0e be 31 db 33 bf
       -0.20427401 0.1140729 -0.1389605 -0.70256335
000330 1f 40 f0 be 95 5b 23 3e b3 6d eb be c7 93 64 be
       -0.4692392 0.15952905 -0.4598213 -0.22321998
000340 f9 a1 0e 3e 38 ee b2 3e a3 05 48 bd ae e4 d9 3e
       0.13928975 0.3494737 -0.0488335 0.4255728
000350 a9 f8 9a be d9 57 fd 3d da e9 0d bd 47 b6 cf be
       -0.30267838 0.12370271 -0.034646846 -0.40568754
000360 5d 0c cd 3e b4 2b d0 3d fd 54 56 3e 2f e7 f3 3d
       0.40048495 0.10164586 0.20930858 0.11909329
000370 f3 25 d6 3e f6 4a d8 be 3e 20 22 3d 1e 76 77 3e
       0.41825828 -0.4224469 0.03958153 0.24166152
000380 72 3e c9 3e fe e9 7d be 0c 97 fc 3e f6 dc 1f 3f
       0.39305454 -0.24796292 0.4933399 0.62446535
000390 bd 78 ae 3e a1 fc 3e 3e 56 6d 2b 3f 5f e9 e3 3e
       0.3407649 0.18651058 0.6696371 0.44513986
0003a0 3e bc 64 3e 4e 87 4d 3e 2b 03 92 bc 71 a2 0b 3e
       0.22337434 0.20071146 -0.017823776 0.13636185
0003b0 0f 14 d8 3e a4 a8 12 3f 2a 60 82 bd 59 0b d8 be
       0.42202803 0.57288575 -0.06365998 -0.42196158
0003c0 c9 31 34 3e 47 3c 88 bd bc 61 dd bd 46 03 a6 3c
       0.17597117 -0.06652122 -0.10809657 0.020265233
0003d0 8a 53 84 bc f0 3e 8d 3e 98 19 3c 3f 87 ed 38 3f
       -0.016153116 0.2758708 0.7347655 0.7223744
0003e0 07 04 2c 3d 66 1f 62 3e eb 90 b2 3e 37 92 31 3e
       0.04199603 0.2208229 0.3487619 0.17340933
0003f0 7c a0 1b be 42 52 ef 3e cf 27 97 be 86 3d e5 be
       -0.15197939 0.46742445 -0.2952256 -0.447735

bias f4 [120]
000000 e4 21 cd 3c c2 70 82 bd 39 2c f5 be 70 21 04 bd
       0.025040574 -0.06369163 -0.47885302 -0.03225845
000010 46 e8 a5 be e5 b5 c3 3d 62 15 b6 3d ab 59 81 3d
       -0.32403773 0.09556178 0.08890797 0.06315931
000020 13 20 2f be c4 78 db be c2 02 f4 be 29 43 11 bd
       -0.17102079 -0.42865574 -0.47658354 -0.03546444
000030 a5 62 2e 3e 7a aa 62 be 06 1e ed be 65 f0 81 bc
       0.17029817 -0.22135344 -0.4631197 -0.0158617
000040 6a fb 68 3d c7 f6 8d be 9c 5f fa be db ff d5 be
       0.056880392 -0.2772734 -0.4890107 -0.41796765
000050 2a 02 73 3d 59 b9 23 bc 26 c1 da be ca 5d c5 3d
       0.059328236 -0.009992921 -0.42725486 0.096370295
000060 c7 3e ce be 39 b0 13 3e 3c aa 9a be 51 bb ab 3c
       -0.4028227 0.14422692 -0.30208004 0.020963343
000070 61 12 c1 be 0d 53 5b 3e c9 05 2a bd e5 99 96 be
       -0.37709334 0.214184 -0.041509423 -0.29414287
000080 2a 30 dd be 59 35 13 3e 57 c4 02 3e d5 2e 22 3d
       -0.4320081 0.1437582 0.1277021 0.039595444
000090 93 63 72 be 03 95 bd bc b8 09 b2 3d 1f 26 b7 3d
       -0.23670797 -0.023142343 0.0869326 0.08942818
0000a0 a5 80 fc be d7 0a c8 bc 55 a0 0b 3e 1b 4c ef be
       -0.49316898 -0.024419231 0.1363538 -0.4673775
0000b0 8a ac d6 bd 7e a6 35 be 87 45 54 be e9 6e e5 be
       -0.10482128 -0.17739293 -0.20729648 -0.4481118
0000c0 ef 76 11 be 13 29 5a bd ad aa c4 3d 64 52 fd be
       -0.14205526 -0.053261828 0.09602866 -0.49476922
0000d0 59 26 cd be e0 67 eb be d2 80 ec be 6e af 14 be
       -0.4006832 -0.45977688 -0.46192032 -0.14520046
0000e0 42 5d 9e bc 90 16 08 3d 2f 65 3b be d7 0d 24 3d
       -0.019331578 0.033224642 -0.18300317 0.04005226
0000f0 e4 50 f7 be ee 1e af bc 1d e9 46 be 30 29 e5 be
       -0.48303902 -0.021377053 -0.19424863 -0.44757986
000100 48 81 b6 bd f2 07 72 3d ab 26 eb be ec 1e f3 be
       -0.08911377 0.05908961 -0.4592794 -0.4748453
000110 2a cb 84 be 19 83 9c be 05 51 6e 3d f8 e4 14 3b
       -0.25936252 -0.3056877 0.058182735 0.0022719484
000120 f8 e1 b1 be 48 94 44 3e 4d 62 62 3e 17 81 c4 3d
       -0.34742713 0.1919719 0.22107811 0.095949344
000130 35 74 e3 be 88 c4 03 bd 10 19 86 3e 9a 29 50 be
       -0.44424596 -0.03216985 0.26190996 -0.2032837
000140 ac 9b 1b 3e 23 16 37 3e 01 85 a9 be c4 af 44 be
       0.15196103 0.17879538 -0.33109286 -0.19207674
000150 1b 87 f6 bd 65 5e b4 bc aa 58 43 be e5 42 6a 3e
       -0.12037488 -0.022017667 -0.19076791 0.2287708
000160 6d 91 7e be f9 45 25 3d 1e db 8f 3c 28 b1 2c be
       -0.24860163 0.040349934 0.017560538 -0.16864455
000170 62 c2 d9 3d c0 25 47 3e 6d 59 e8 be 88 1d 1f bc
       0.10632779 0.19447994 -0.45380726 -0.009711631
000180 c3 b1 90 be 08 d4 de 3b 1f 7b e8 be 3c b5 f0 bd
       -0.2826062 0.0068001784 -0.45406434 -0.11753318
000190 98 08 48 bc 4f 11 aa 3d da 84 03 3d 73 63 d9 3d
       -0.01220908 0.083040826 0.03210912 0.106146716
0001a0 c4 a6 0a bd 4b 87 69 3d 83 41 84 3d f6 b3 18 be
       -0.033850446 0.05701379 0.06457808 -0.149124
0001b0 2d 61 84 bc 5e ca cc be f9 e0 17 3d 5b 3e 38 be
       -0.016159618 -0.39998144 0.037079785 -0.17992537
0001c0 2b fb 24 bd 09 ef 10 3c 87 1a f1 3d a2 16 47 3e
       -0.040278595 0.008846053 0.11772638 0.19442227
0001d0 61 a7 f4 3d 0f 9d b9 3d 93 67 2c 3e 1a e4 73 3e
       0.119459875 0.0906316 0.16836385 0.23817483

weight f4 [120, 120]
000000 f4 d4 04 b9 8f 0a fc 3e 00 ea f4 3c 60 ca 1f 3e
       -0.00012667832 0.49226806 0.029896736 0.15604544
000010 23 af dc bc 26 f5 e2 bd 9f 4d 22 3d e6 91 83 3e
       -0.02693898 -0.110819146 0.039624806 0.2569725
000020 ce 3a 5e 3d 76 e8 90 bc 28 96 4a 3c f5 60 a6 3e
       0.0542553 -0.017688971 0.012364902 0.32495847
000030 5a 81 fe bd 0f 26 6a bd 85 c7 89 3d b4 dd 2b 3b
       -0.124270156 -0.0571652 0.067275085 0.0026224675
000040 11 47 d7 3d 2a b6 fe 3b 07 40 a4 bd dd 1b b1 bd
       0.10511602 0.0077731805 -0.08020025 -0.086478926
000050 81 a7 ac 3d f8 46 28 3e fa 42 cc bc 13 86 bc 3b
       0.08430386 0.16433322 -0.02493428 0.0057532876
000060 a0 c9 63 3d 5b 08 f8 bd ff 11 87 3d e8 68 ef 3c
       0.055612206 -0.12110969 0.06595229 0.029224828
000070 a0 d0 10 3d 27 3b ff be 6f 2a c0 bd cc c3 89 3d
       0.03535521 -0.49849817 -0.093830936 0.067267984
000080 7e 3c b3 3d 2c 89 48 bd 1a 65 a6 3d 0e b5 ec 3d
       0.08751772 -0.048958942 0.08124752 0.11557971
000090 9f e1 bc bd ba 63 7c 3e 67 92 89 bd 9f be 22 3d
       -0.09222721 0.24647418 -0.06717377 0.03973257
0000a0 77 04 5b bd cc 9a 19 3c 0a 7e 01 bd 7b 0a 15 3d
       -0.053471055 0.009375285 -0.03161434 0.036386948
0000b0 2f 60 2c bd 03 37 71 3d 1a 2e 2e 3d d1 e7 bf bc
       -0.042083915 0.058890354 0.042524435 -0.023425968
0000c0 25 e4 a1 bd ad bb 93 3d 34 b3 8a bd dc a0 0e 3d
       -0.07904843 0.07213531 -0.067724615 0.034821376
0000d0 6e 98 91 3d b5 10 5e bb b9 5a 30 bd ed 93 7e bd
       0.07109152 -0.003388447 -0.04305527 -0.06215279
0000e0 c4 db 0a 3d b6 69 52 3e 24 cb 40 bd fe 95 01 3e
       0.03390099 0.20548138 -0.04706873 0.12654874
0000f0 72 af fb 3c a3 0f 37 3e 53 bd 3f bd 40 55 46 3d
       0.030723307 0.17877059 -0.046811413 0.048421144
000100 5a 5e 99 3c 58 91 8e 3d b9 b5 a7 3d 70 62 31 bc
       0.018721748 0.06961316 0.08188958 -0.010826692
000110 94 40 35 bd bd 81 1d bd 01 28 2e 3c 39 69 08 3e
       -0.04425104 -0.038453806 0.010629655 0.1332139
000120 5c 8b cb bd da 0a 07 bd 00 e4 77 3d 78 6a f4 3d
       -0.0993869 -0.032969333 0.060520172 0.1193437
000130 14 d0 53 3d fc 06 90 3d 8f fa 57 be b2 6d 0d 3c
       0.05171211 0.07032582 -0.21091674 0.00863211
000140 d4 b7 ba bd 7b 17 38 bd 5e 65 83 bd de ad 1e bd
       -0.09117094 -0.044944268 -0.06415819 -0.03874003
000150 71 88 a0 3d d0 fe ec bd b4 12 8e 3d 6d 3b a2 bd
       0.07838524 -0.11572039 0.06937161 -0.07921491
000160 08 9e 1c bc ae ed 24 bc bd d2 11 3e 12 0a 9e bb
       -0.009559162 -0.010066433 0.14240547 -0.004822978
000170 d8 fe 7e bc 73 46 ed bd ee b7 c7 3a 8e 61 d5 bc
       -0.015563689 -0.11585703 0.001523731 -0.026047494
000180 c9 fe 47 bd e3 0f 07 3d 64 71 7b 3d 87 57 c8 bc
       -0.048826966 0.032974135 0.061387435 -0.024455799
000190 8c ab e5 3c 54 4c df bc b8 99 bc 3c ab 29 97 3d
       0.028035901 -0.027258076 0.023022518 0.073809944
0001a0 1f 4a 20 bd 5b 19 c7 3d 48 1e c9 3c 3a 49 8e bd
       -0.039133187 0.09721633 0.024550572 -0.069475606
0001b0 85 ce e9 3d 77 bf 19 bd c4 d6 8e 3d ee c7 9b bd
       0.114163436 -0.03753611 0.06974557 -0.07606493
0001c0 30 f8 be 3e 4b db 53 3d 1b 1a 69 3c df 7f 93 bd
       0.37298727 0.051722806 0.014227415 -0.07202124
0001d0 6e 87 a1 bd 92 da 4b bc a2 b2 a6 bd 1c 70 a1 be
       -0.07887159 -0.012442248 -0.0813954 -0.31530845
0001e0 09 5e 32 3d 10 da b1 bd 4e 1b 61 bd 0f 25 69 3d
       0.04354671 -0.0868417 -0.05495768 0.056920107
0001f0 92 32 0e bd fc 86 b5 3d 8d 9f 29 bd ad ed 7d bd
       -0.034716196 0.08863637 -0.041411925 -0.061994243
000200 6b 9e 03 3d c9 9e b1 3d 5e b9 15 3d fc 66 93 bd
       0.0321335 0.08672864 0.036553733 -0.07197377
000210 88 02 32 3d 5b 96 b3 bd 39 29 91 bb f1 43 bd bd
       0.043459445 -0.087689124 -0.004429963 -0.092414744
000220 68 e2 db bc b6 5a 48 3d f7 42 a2 bd 0e 53 63 3d
       -0.026841357 0.048914634 -0.07922929 0.05549913
000230 bb 84 ab 3d ca 67 8f bd 3f 43 b2 3d 14 00 dd bb
       0.08374926 -0.07002218 0.087042324 -0.006744394
000240 94 7a 0e bd a2 23 58 3d cb e4 80 3c 9b 39 74 bd
       -0.03478487 0.052768357 0.015734097 -0.05962525
000250 31 18 b4 bc f9 bc 8b bd b9 b6 b5 bd 2a 6f c0 3d
       -0.021984192 -0.06823153 -0.08872742 0.09396203
000260 9d fa 07 bd ac 9a 74 3d 1e 57 59 bc 14 f9 9c bc
       -0.033197988 0.05971782 -0.013265399 -0.019161738
000270 ae 75 11 3d 7d a5 82 3d 20 19 6e 3d 9b cb 3d bd
       0.03551262 0.06379221 0.05812943 -0.04633675
000280 ec 77 12 3d e7 4b 58 3d fe d6 b7 bd 70 58 90 3d
       0.035758898 0.05280676 -0.089765534 0.07048118
000290 78 2d e0 3c bc eb 9b 3d 65 f4 62 bd 80 8c 83 bd
       0.027365431 0.07613322 -0.055408854 -0.064232826
0002a0 01 71 97 3d 67 30 8e bd 42 11 86 bd da 93 65 bd
       0.07394601 -0.06942826 -0.065462604 -0.056049205
0002b0 bd f4 26 3d a5 35 73 bb bd 98 b7 3d 49 11 7f bb
       0.040760744 -0.0037110832 0.089646794 -0.0038920215
0002c0 8d 95 89 3d 58 14 17 bc d5 99 66 3c 94 63 3c bc
       0.06717978 -0.009221159 0.014074762 -0.011498351
0002d0 3d 4d 11 3d cc 01 96 bd 3b 51 bf 3c 7d 2f 33 bb
       0.03547405 -0.073245615 0.023354163 -0.0027341538
0002e0 cf 38 87 bb c6 cb 57 3a 95 91 a0 3d 5d 04 59 3b
       -0.004126645 0.0008231964 0.078402676 0.0033114173
0002f0 8d ac 06 bd d7 3c 37 3d 3d d0 c4 bd a5 10 6a 3c
       -0.0328794 0.044735756 -0.09610031 0.014286195
000300 05 13 7b 3d 40 45 a1 bc 0e 41 80 bd 2e be 6a bd
       0.061297435 -0.019686341 -0.06262408 -0.057310276
000310 fb d7 b0 bc 53 ca 67 3d b7 47 1b bd 98 26 b8 bc
       -0.021587363 0.056589436 -0.03791019 -0.02247934
000320 43 d0 41 bd 8f 63 2f 3d 55 d7 ca 3c f4 08 f1 3c
       -0.047317754 0.042819556 0.024760881 0.029423214
000330 2f 24 a1 bd 3c f4 a2 bd 72 a2 0e 3c 07 6f 57 3b
       -0.078682296 -0.0795674 0.008705722 0.0032872574
000340 2a 88 88 3d 5c e5 14 bd 69 32 b7 bd fd 32 04 bd
       0.06666596 -0.036351547 -0.08945162 -0.03227519
000350 5a d0 57 3b 6e f4 99 3d e8 bb 0d bd 08 e8 0d 3d
       0.0032930584 0.075173244 -0.03460303 0.03464511
000360 0c 30 17 bd a4 e6 94 3d 8f 79 8a bc 7a 60 97 3a
       -0.036911055 0.07270554 -0.016903667 0.0011549138
000370 59 8d 4b 3d 69 98 8e bd 39 06 9e bd 6d 32 b0 3d
       0.049695347 -0.06962664 -0.07716031 0.08603368
000380 58 45 67 bc 0f 7f aa bd 9f 89 a8 3c 6d c1 16 bd
       -0.014115654 -0.08325016 0.020573435 -0.03680556
000390 c0 b4 b1 bc 36 27 9a bb c2 0b 27 bd b7 7f a2 3d
       -0.021692634 -0.0047043813 -0.040782697 0.07934516
0003a0 be a5 4f bd 02 d8 b8 bd 83 17 36 3d 39 c2 03 3c
       -0.050695173 -0.09025575 0.044456016 0.008041912
0003b0 62 75 a2 bd 87 c5 6f 3c 36 02 44 bd be c1 77 bd
       -0.07932545 0.0146344965 -0.04785367 -0.0604875
0003c0 f9 3a 52 3c 11 66 91 3d bf 55 21 3c 6f 46 7d 3d
       0.012831443 0.07099546 0.009847104 0.06183475
0003d0 56 a8 e8 3b 61 dd e0 bc ac a1 d6 bd 93 be b7 bd
       0.0071001453 -0.027449312 -0.10480055 -0.08971896
0003e0 d0 0d 28 3d 74 53 b4 3d 0e c9 43 3d fd e9 82 bc
       0.041028798 0.0880498 0.047799163 -0.015980715
0003f0 8e 75 78 3d 69 55 8c 3d 05 24 94 bd 32 5e ac bd
       0.060658984 0.06852228 -0.07233433 -0.08416404

bias f4 [120]
000000 02 3f d0 3d d1 2b 45 bd 35 99 5a bd 90 d7 06 3d
       0.10168268 -0.04813749 -0.053368766 0.03292042
000010 73 03 03 3d b9 6c f3 bc 47 90 e7 bc 28 e8 34 bd
       0.03198571 -0.029714929 -0.028267039 -0.044166714
000020 18 5e c8 bd 1d 99 42 3d 6e 47 1b 3d bd af a2 bd
       -0.09783572 0.0475093 0.037909918 -0.07943676
000030 9e 9d 37 bb 80 a0 8a bd 99 ed 23 3d a7 2d 1d bc
       -0.002801753 -0.06768894 0.040021513 -0.009593404
000040 28 b1 60 3c 7b de 40 3d 9f ce 8a bc 4e 26 26 3b
       0.013714112 0.047087174 -0.016944228 0.0025352421
000050 e3 4f c7 bd 6a 76 c6 bc 92 20 38 bd 7c 94 3c bd
       -0.09732034 -0.024226386 -0.044952936 -0.046040043
000060 8b 42 1d 3c 4c e6 c7 3c 17 dc 0f bd 3d 66 81 bb
       0.009598385 0.024401806 -0.035122003 -0.0039489553
000070 44 e8 cd bc f8 e1 97 bb 0f fc 6d 3d 76 48 7e bd
       -0.025135167 -0.004635092 0.05810171 -0.062080823
000080 75 1b 15 3d c3 94 0f 3d 95 6a 44 bd 17 97 4e 3d
       0.03640314 0.03505398 -0.047953207 0.05043706
000090 d0 61 2d 3d ed 25 c7 bc 72 84 e7 3d d3 1a 9e bd
       0.04232961 -0.024310077 0.11304559 -0.0771996
0000a0 d0 72 78 bd e5 72 a7 bd 87 0b 90 3c b5 82 ea 3d
       -0.06065637 -0.08176211 0.017583622 0.11450712
0000b0 39 59 80 3b f1 07 ce bc fc e3 0f bd 13 9a ad bd
       0.003916886 -0.025150271 -0.035129532 -0.08476653
0000c0 58 c7 54 3d 4c c3 92 bc eb db 52 3c 3d 68 87 3c
       0.05194792 -0.01791539 0.012869815 0.016529197
0000d0 50 f8 07 bd ef 26 21 3d ab d8 2f bc 89 39 d4 bc
       -0.033195794 0.03934377 -0.01073281 -0.025906341
0000e0 38 76 b6 3c ce c0 1d 3d f5 18 9c bd a8 19 e7 b9
       0.022273168 0.03851395 -0.07621948 -0.0004407887
0000f0 5e 2a 74 3d d8 fc 72 bd fb 57 1d bc 3c 61 75 bd
       0.059610717 -0.05932316 -0.009603496 -0.059907183
000100 12 17 e4 3c 3b 1e 4f bc 00 ce 86 bb 0a e5 1e bd
       0.027843032 -0.012641485 -0.0041139126 -0.038792647
000110 fc bc 95 bd 06 6a c4 3c eb 93 8b 3d ff 47 85 bd
       -0.073114365 0.023976337 0.068153225 -0.06507873
000120 29 14 85 bc 54 a0 83 3d 60 7e 06 bd d7 28 fd bc
       -0.016244965 0.064270645 -0.032835364 -0.030903263
000130 ae 6c 85 3c 70 c7 90 3d f9 f9 80 bd 66 6a 0b 3d
       0.016287174 0.0706929 -0.062976785 0.034037016
000140 db cc 1b 3d 20 a0 86 bd e0 d2 5b bd d1 1b 29 3d
       0.038037162 -0.0657351 -0.053667903 0.041286293
000150 79 de a0 3c 6c 33 9e bc f7 b4 aa bd 61 a2 0a 3d
       0.019637333 -0.01931163 -0.083352976 0.033846263
000160 1f b6 60 3d b4 fe 96 bc 4c b0 80 bc 37 d2 f9 3c
       0.054861184 -0.018431999 -0.015709065 0.030495746
000170 b0 e8 6c 3d ed 54 c2 bd 1a 83 87 bd 46 61 b8 3d
       0.057839096 -0.094888546 -0.066168025 0.090029284
000180 92 f5 94 3c 91 61 14 3c c6 b3 b5 3b ba d0 40 3d
       0.018183503 0.009056465 0.0055451123 0.047074057
000190 7f a6 8f 3d 5e c6 92 bd b0 74 a4 3c 88 38 7e 3c
       0.070141785 -0.07166742 0.020075172 0.015516408
0001a0 a0 1a ac bd d7 2b af bd c3 43 a1 3d 0f 3a e1 bc
       -0.08403516 -0.08553284 0.07874253 -0.027493505
0001b0 d9 96 8c bd 87 ef 74 3d f6 88 c9 bd ae 9f 50 bd
       -0.068647094 0.059798744 -0.09840576 -0.050933532
0001c0 cc 08 6a bd 58 6f 8d 3c aa c2 32 bd fb 2f bd 3c
       -0.057137296 0.017265007 -0.043642677 0.023094168
0001d0 85 6f 5d bd 10 bc 39 bd 74 11 0e bb a3 25 05 bc
       -0.05406143 -0.045345366 -0.0021677883 -0.008126649

weight f4 [120, 120]
000000 d6 d8 b4 bd cc cf b9 3d 5f 04 54 3d 92 8b 4c 3c
       -0.08830421 0.09072837 0.05176198 0.012484448
000010 f3 df 0d be 9e af 93 bd 66 5a f5 3c eb bf 0c 3d
       -0.13854961 -0.07211231 0.029950332 0.034362715
000020 f6 5d cf bc b7 77 ba bd 77 a7 ba 3d 02 a9 7f 3d
       -0.025313359 -0.09104865 0.09113973 0.062417038
000030 2c 97 8d 3d ac e3 c7 3d 68 27 10 3d ea b9 c0 bc
       0.06913599 0.09760222 0.03519383 -0.02352615
000040 ee f7 36 3d d2 e3 9a 3c 84 76 69 3c dd 60 39 3d
       0.044670038 0.018907461 0.014249448 0.04525839
000050 0e d7 22 bd 16 b5 60 bd e3 4d b2 bd 5e 0b 97 3d
       -0.039755873 -0.054860197 -0.08706262 0.07375215
000060 70 88 1a 3d ae 41 9d 3c c0 a5 fd bc 78 bc 8a 3c
       0.037727773 0.019196358 -0.030962825 0.016935572
000070 ab 2e 62 bd 15 81 81 3d 99 b6 08 bd 78 e3 91 3b
       -0.055220287 0.063234486 -0.033377264 0.004452165
000080 d0 24 a6 3c 92 51 57 bc 6b 1f 1c bd 66 65 a7 3d
       0.020281225 -0.0131420065 -0.0381159 0.08173637
000090 02 09 69 3d d0 fe 8d 3d 93 3c 9c 3d 96 64 e6 bc
       0.056893356 0.06933367 0.07628741 -0.028124135
0000a0 80 e7 5e 3d 9d 79 04 bd ed 89 46 3d 44 10 c9 bc
       0.054419994 -0.032342542 0.04847138 -0.024543889
0000b0 1c 4e ee bb b0 a2 2d 3d 79 90 80 3d f5 0e 82 3d
       -0.007272495 0.04239148 0.06277556 0.06350509
0000c0 58 8e e7 bc 93 b4 09 bc 80 83 83 3d e0 ec b2 3d
       -0.028266117 -0.008404869 0.06421566 0.087365866
0000d0 cc 4d c5 bc 52 f8 c3 3d 6a 3d 87 3d 85 31 a0 3d
       -0.024084948 0.09568848 0.06603511 0.07821945
0000e0 fa a5 8c bc 58 03 b1 3d 7b ef 1f bd ed cf b0 ba
       -0.017168988 0.08643216 -0.039046746 -0.0013489701
0000f0 36 c4 48 39 03 15 10 bd d6 44 9b bc a3 72 aa bd
       0.0001914658 -0.03517629 -0.018953722 -0.083226465
000100 e8 81 1d bd 85 67 04 3c 56 f7 b4 39 64 b0 77 3d
       -0.038453966 0.008081322 0.00034516555 0.060470954
000110 74 31 a1 3d 7e a4 c1 3d bb 10 1b 3b 6d 00 ad 3d
       0.078707606 0.094552025 0.0023661095 0.08447347
000120 7b e8 1a bd f6 a4 c0 bd 3f 3d 6d 3c a6 2f a6 bc
       -0.037819367 -0.09406464 0.014479934 -0.020286392
000130 38 cf a6 bc d5 c8 ce 3c 6a a9 97 3d b8 1a ca bc
       -0.020362481 0.025242249 0.0740536 -0.024670944
000140 a2 92 fe 3a b6 e2 9c 3c bf b1 2b 3d 32 dd 66 bd
       0.0019422362 0.019151073 0.04191756 -0.056363292
000150 2f 3a e3 bb a5 6e 68 bd 61 3d 05 3d 03 4b dd 3c
       -0.0069344263 -0.056746144 0.03252924 0.027013307
000160 30 f9 c1 bd c0 85 ea 3c 30 41 52 bd 4e 17 01 bd
       -0.09471357 0.02862823 -0.0513317 -0.031516366
000170 55 e3 8a 3d d3 4b a2 3d e2 98 64 bc 98 1a af bc
       0.067816414 0.079246186 -0.013952466 -0.021374986
000180 92 2b 7d bd 7c 02 1e 3d 4e b0 84 3d c1 c8 ab bd
       -0.06180913 0.038576588 0.0647894 -0.083879
000190 63 ab e1 bd 69 78 be 3d da b8 53 3d c7 30 87 3d
       -0.110190175 0.0930031 0.05168996 0.066011004
0001a0 96 e6 29 bc 1f 00 a5 bc 95 b0 a0 bd a8 5e e0 3c
       -0.010369917 -0.02014166 -0.0784618 0.027388886
0001b0 27 d3 7a bd 14 7a 0b 3d 58 1e 95 3d 67 20 f1 3c
       -0.061236527 0.03405197 0.07281178 0.029434396
0001c0 aa a8 9f 3d 04 8f 77 bd 7d 8e d7 3d 97 aa e7 3d
       0.07795842 -0.060439125 0.10525224 0.11311834
0001d0 ba 6b 24 3a 62 fe 17 3a b6 65 74 3d 9b f6 9e 3d
       0.0006272156 0.0005798099 0.05966731 0.0776188
0001e0 a6 59 89 bc 74 40 40 bd 93 b4 aa 3c cc 81 84 3d
       -0.01676638 -0.046936467 0.020838058 0.06470069
0001f0 74 04 e1 3b f2 ea 08 bd 44 c6 0c 3d 65 8f 93 bd
       0.006866986 -0.033427186 0.03436877 -0.07205085
000200 5f c8 8d bd c0 cf 9b 3d d7 bc 34 bd e6 b6 29 3d
       -0.069229834 0.076079845 -0.044125404 0.04143419
000210 5d fd ad bc 7b 86 d3 3d 4f 26 5a bc 3d 90 b2 bd
       -0.021238977 0.103283845 -0.013314798 -0.087189175
000220 9e 37 a8 bb f2 b7 58 bc 89 9c a1 3d 47 eb 83 3d
       -0.005133583 -0.01322745 0.07891185 0.0644136
000230 2d 7e 11 3d 5d 8f 15 3c ce 70 46 3c 82 7b 68 3d
       0.03552072 0.009128419 0.012111856 0.05675841
000240 5b 2d 82 3d e1 14 5e 3d 18 ea 24 bd 15 f5 70 3c
       0.06356307 0.05421913 -0.04026231 0.01470687
000250 63 c6 71 3d 0a 42 af bd 1b ef 2e bd 27 15 ca 3c
       0.059027087 -0.08557518 -0.042708497 0.02466829
000260 6a d3 af bb b8 ea 49 bd a8 1d 18 bd 0a 30 c0 3d
       -0.0053657787 -0.04929611 -0.037137657 0.09384163
000270 2e f4 18 bb 5b be be 3c 7f 8b 5a bd 96 8c 88 3d
       -0.0023338902 0.023284128 -0.05335569 0.0666744
000280 b8 dc 52 3d 90 9d b8 bc 8c 13 7c bd 78 c7 a2 bc
       0.051480025 -0.02253607 -0.06154208 -0.019870505
000290 87 ee b6 3d 03 4b 10 bc 20 3c a5 3d 30 4a b1 3d
       0.08932214 -0.008806947 0.080681086 0.08656728
0002a0 82 6e 90 bd 60 e4 49 3b 03 50 5a bd 51 4d 13 3d
       -0.07052328 0.0030806288 -0.05329896 0.035962407
0002b0 4f 9c 91 3d 3b 28 72 3d 24 ef 61 bc d4 85 27 3d
       0.071098916 0.059120398 -0.013789926 0.040899113
0002c0 53 02 77 3d d7 85 a9 39 0b f0 7c 3c 7b 8f a4 3d
       0.06030495 0.0003233391 0.01543809 0.08035179
0002d0 ab 4d 80 bd 39 71 66 bc f5 ca 49 3d e4 62 19 3d
       -0.06264814 -0.01406508 0.04926582 0.037447825
0002e0 c3 18 86 3d e7 7a 76 3d f5 02 c3 3c 5a 12 73 bd
       0.06547692 0.060175803 0.023805121 -0.059343673
0002f0 cd 98 1b 3d 88 0c 6a 3d 8a e2 5b bd 21 29 9b bc
       0.03798752 0.057140857 -0.05368284 -0.01894051
000300 df 03 16 3c 30 3a 5a bd 96 e8 85 bd 51 a1 9a 3d
       0.009156196 -0.05327815 -0.06538503 0.075503
000310 fc 57 7d 3d af b9 8d bd b0 36 3c 3d 75 68 df bc
       0.061851487 -0.06920182 0.04595059 -0.027271489
000320 03 a0 c1 bd 24 d9 b4 3d 4a eb 88 3d 49 dd 85 bd
       -0.09454348 0.08830479 0.06685503 -0.065363474
000330 e5 c7 cc bd a9 f3 fc bc 27 f6 23 bd 87 46 37 bd
       -0.09999064 -0.030877905 -0.04002967 -0.044744994
000340 77 da c3 3a 0e c5 29 bd 4b 8c ed 3c 27 99 59 3d
       0.0014942427 -0.04144769 0.028997561 0.053124573
000350 8d a9 37 3b 35 5d 6b bd bc b0 88 bd c5 21 5e bd
       0.0028024644 -0.057461936 -0.066743344 -0.054231424
000360 bf 49 bd bc ac b3 62 3d 20 da 9d 3d 7c 22 67 bd
       -0.023106454 0.05534713 0.0770762 -0.05642937
000370 07 7d d3 bd 10 72 01 bd bb 2f 0c 3b ad 55 c4 3c
       -0.103265814 -0.03160292 0.0021390754 0.023966635
000380 7e ec 8b bd 7a c8 74 3c 5d 2c 39 bd 6e 38 68 bc
       -0.06832217 0.014940375 -0.045208324 -0.01417361
000390 d6 af 01 bd b3 ba 9f bd 5c d4 df 3a 8d c8 83 bd
       -0.03166183 -0.07799282 0.0017076838 -0.064347364
0003a0 59 92 8d bc 2f 38 2d 3c ac 8a af bd 00 d2 a2 bc
       -0.017281698 0.010572477 -0.085713714 -0.019875526
0003b0 e1 a6 9d ba f2 f2 9f 3d c4 05 99 bd 68 37 95 bd
       -0.0012027883 0.0781001 -0.07471803 -0.072859585
0003c0 72 a9 2f 3d df 06 96 bd af 75 54 3d 35 a2 76 bd
       0.042886205 -0.07325529 0.051870044 -0.060213286
0003d0 12 8d be 3b 81 81 b4 3d 66 02 a4 bb 2b 62 b8 3c
       0.0058151567 0.088137634 -0.0050051687 0.022507748
0003e0 52 f4 97 3c ed f5 32 bd 44 cc bd 3c 90 40 46 bc
       0.018549118 -0.043691564 0.02316869 -0.012100354
0003f0 fd 4c db bc bb e3 b9 bd 77 af 54 3d dd 85 b5 bb
       -0.02677011 -0.09076639 0.05192515 -0.0055396394

bias f4 [120]
000000 d8 00 80 3d a3 af 45 3c 43 b6 a0 bd 51 41 ec 3c
       0.06250161 0.012065801 -0.07847264 0.028839739
000010 99 40 1e 3d 15 2a 40 be b6 1b 0f be a8 59 a9 3c
       0.038635824 -0.18766053 -0.13975415 0.020672634
000020 cc 3c d0 3d 40 44 f5 3c dd fa 36 bd 81 f1 40 bd
       0.10167846 0.02993977 -0.044672836 -0.047105316
000030 38 f9 6e 3c 97 77 ad 3c 7f f8 70 3b 02 02 73 3d
       0.014585786 0.021175189 0.003676921 0.059328087
000040 4a 52 8e bd ce eb 78 bd d4 02 a0 bd d1 5d 9e bd
       -0.06949289 -0.060771756 -0.078130394 -0.07732738
000050 ea 94 be bd 06 b7 11 bb a3 13 b5 bd 46 a0 ce 3c
       -0.09305747 -0.0022234335 -0.08841636 0.025222909
000060 1f 63 23 3e e9 87 da 3d bb ee ae bc ea 15 24 3d
       0.1595578 0.10670454 -0.02135407 0.04005996
000070 d2 ef fa bc 15 a1 3d 3d ff 9d da 3b 37 17 24 bd
       -0.030631933 0.046296198 0.0066716666 -0.040061202
000080 b0 89 e7 bb 30 73 7f 3c 87 fa eb 3d 02 ec 9e 3d
       -0.007065974 0.015591428 0.11522394 0.07759859
000090 d0 6b 33 bd 63 3c 94 3d 62 3b a2 bc 15 74 b5 bc
       -0.04380399 0.0723808 -0.019803707 -0.022150079
0000a0 a1 d8 8f bc 92 ab fd bc 38 95 4e bc 43 7c f4 bc
       -0.017559351 -0.0309656 -0.012608819 -0.029844409
0000b0 af 07 41 bd 46 c9 e6 bd 05 fc 3d 3a 59 2e a2 bb
       -0.04712647 -0.112688586 0.00072473317 -0.0049493727
0000c0 0c f1 7b bc 1d df 12 be bb 02 a4 3c 5a d7 84 3d
       -0.015377294 -0.14342923 0.020020833 0.064863876
0000d0 c6 5c 15 3b a9 6b 32 bd f0 b1 5e bd 87 82 67 bd
       0.0022790893 -0.043559704 -0.054368913 -0.056520965
0000e0 e3 ec 6a bd 9e 3f 10 3c 28 a8 14 bd ec 30 9f 39
       -0.05735482 0.00880423 -0.03629318 0.00030363293
0000f0 da 50 c5 bc b7 c6 16 3c ef f0 23 bd f1 11 8c 3d
       -0.024086405 0.009202651 -0.040024694 0.068393596
000100 01 2a cb 3c 53 fb c9 bd 76 8b df 3c db fd ee 3c
       0.024800302 -0.098623894 0.02728818 0.029173782
000110 d0 f7 93 3d 86 9c 5c bd c6 b4 80 b9 9c 89 f6 bd
       0.07225001 -0.05386021 -0.0002454875 -0.12037966
000120 ec e1 0f 3d 1d 05 8c bd ad 12 24 3a cc ba 3a 3d
       0.035127565 -0.06836913 0.00062588864 0.0455883
000130 64 56 5e 3c a7 6d 24 bc 98 1d 83 3d 25 f5 4e 3b
       0.013570402 -0.010035909 0.06402129 0.0031579223
000140 32 de 11 be b3 ac 78 bc 7d a4 6c bb a8 92 52 bd
       -0.14244917 -0.015177893 -0.0036108785 -0.051409394
000150 49 a3 63 3c 7b a7 74 bd 7b a6 1b bd 1f 6c 89 bd
       0.013893911 -0.059730034 -0.038000565 -0.067100756
000160 b5 4a 9c bc 51 ea 09 3d cc 31 0a be 93 ff a5 bb
       -0.019078592 0.033670727 -0.13495559 -0.005065867
000170 f5 08 46 ba 9f 96 b6 3d 83 e3 99 bd 54 e3 11 3e
       -0.0007554435 0.089154474 -0.075140975 0.14246875
000180 b4 2f a4 bd f7 3e 02 bd d0 e1 ca bd 05 af ff bb
       -0.08016911 -0.03179833 -0.099063516 -0.0078028464
000190 26 ad 04 bb dc 98 f5 3d 0b a1 63 bd ef ea 13 be
       -0.0020244806 0.11992046 -0.055573504 -0.14445089
0001a0 02 f4 35 bc e0 d6 80 bd 26 16 90 bd 0a c4 81 3b
       -0.011105539 -0.06290984 -0.070354745 0.0039601373
0001b0 fb 8d c4 3c 72 e2 f9 bd cf 33 6b bd 8a 65 38 3b
       0.023993483 -0.12201394 -0.057422455 0.0028136694
0001c0 7c cf 30 bd 21 36 e6 3c 6f 71 9f bc 57 9a be bc
       -0.043166623 0.028101983 -0.019463269 -0.023266954
0001d0 1b 90 c2 bd eb 88 82 bd 70 b2 8b bd 69 a1 e2 bc
       -0.09500142 -0.06373771 -0.068211436 -0.027664857

weight f4 [120, 120]
000000 cc 40 69 3c cf 06 3b 3c 8a 49 af 3d 58 95 6a 3c
       0.01423664 0.0114151975 0.08558948 0.014317833
000010 3d d5 dc bc 5d 7e b0 3c e8 0e 67 3d 0d a1 a6 bd
       -0.026957149 0.02154463 0.0564107 -0.08136187
000020 a1 ba f0 bb 85 a1 1c 3d 05 50 20 3d 08 c8 90 3d
       -0.0073464666 0.038239975 0.039138813 0.07069403
000030 76 da 63 bd 14 68 5a 3d c2 c2 b0 bd f4 97 9b 3c
       -0.055628262 0.053321913 -0.08630897 0.018993355
000040 12 d6 01 3d 98 4c 6f 3d e3 90 8d 3d dd 12 a5 3c
       0.031698294 0.058422655 0.069124006 0.020150596
000050 2e e8 3f bd e5 9d 63 bd 40 3d ce bc 76 fb 1f 3c
       -0.046852283 -0.0555705 -0.02517569 0.009764543
000060 44 17 ef 3c 87 1f 0d bc 27 73 0a bd 6a 93 48 bc
       0.029185899 -0.008613474 -0.033801224 -0.0122421775
000070 76 a6 b5 3d 58 73 10 3d 9a 66 29 3d 4e f4 b6 bc
       0.088696405 0.03526625 0.041357614 -0.02233329
000080 10 72 94 3c 27 63 17 3d 29 db 77 3d c2 21 06 bd
       0.018120795 0.036959793 0.06051174 -0.032747038
000090 53 af b6 bc 4e c5 3f bd 22 05 2b 3d b7 67 84 3d
       -0.022300398 -0.046819024 0.041752942 0.064650945
0000a0 6b 19 6a bd c4 57 75 3d c7 fe 34 3c 8e ff 85 bd
       -0.057153147 0.059898153 0.011047072 -0.06542884
0000b0 5c 88 5c bd 37 b0 7c bd 2d e0 a0 bd 82 a0 02 3d
       -0.05384098 -0.06169149 -0.07855258 0.031891353
0000c0 11 16 a0 bd a2 ce 3c 3d 84 b5 1c bd 7b 02 85 3d
       -0.07816709 0.046095498 -0.038259044 0.06494614
0000d0 d3 93 75 bd 6d c9 43 bd b5 cc dc 3b 3e 4f 68 3c
       -0.05995543 -0.047799516 0.00673827 0.014179049
0000e0 9a 12 00 3d 4d be 0f 3d 0c 2d 64 bd 3b 3b ae bd
       0.03126774 0.035093594 -0.055707023 -0.08507391
0000f0 44 fe 92 3c 0a 73 0f 3d b1 44 85 bd 5e 6f 9f 3d
       0.017943509 0.03502182 -0.065072425 0.077849135
000100 b1 ac b7 bd 81 df 83 3d 4e e6 c1 3b bb 83 06 3d
       -0.08968485 0.06439114 0.005917347 0.03284047
000110 f8 4c 62 bd 6b dc 2f 3d 73 a6 8d 3d aa 69 f4 bc
       -0.055249184 0.042934816 0.06916513 -0.02983554
000120 aa 09 92 bd 43 32 9a bd 86 c8 ab bd 4e a3 b3 3b
       -0.071307495 -0.07529118 -0.08387856 0.005482114
000130 8e 8c 8e 3d 31 d4 55 bd 5e 46 00 3c db b7 8c 3d
       0.069604024 -0.052204315 0.007829277 0.06871005
000140 c9 75 92 3d 7c 8a bf 3c 5c 0a 76 3d 26 27 8f bd
       0.07151372 0.023381464 0.060068473 -0.06989889
000150 e0 93 5b 3d 13 ab 94 3c cd a0 87 bd 31 f9 aa bd
       0.05360782 0.01814798 -0.06622467 -0.08348311
000160 65 06 c2 bd bd 47 a3 bd 30 ba 71 bc 0c 1c 41 bd
       -0.09473876 -0.07972667 -0.014753863 -0.04714589
000170 eb d7 a4 bc bd 10 c4 bd b3 24 59 3d 4a 6f a6 bc
       -0.020122489 -0.09573505 0.053013515 -0.020316739
000180 63 a3 12 bd 86 1f 10 bc dc 70 0a bc bb 9a ab 3c
       -0.03580035 -0.008796578 -0.008449759 0.020947805
000190 aa 0f 24 bd 4a 98 83 bb 0f cf 15 3d 94 f4 3b 3d
       -0.040054 -0.004015957 0.03657442 0.045887545
0001a0 e5 17 10 3c 2a cf a0 3d fd 2e dc bc 5c 0e c0 3c
       0.008794759 0.078520134 -0.026877875 0.023444347
0001b0 fb ae 0d be 31 2a 35 3d cd 56 a4 bd da af a9 3c
       -0.13836281 0.04422969 -0.080243684 0.020713735
0001c0 53 47 89 3d 46 c4 61 bd 0a fa 16 3d d0 4f 38 3d
       0.06703057 -0.05511882 0.03685955 0.04499799
0001d0 0d 6c 86 3b 11 69 1a bd 8f 1a 97 bd b4 94 3d bd
       0.004102236 -0.037697855 -0.073781125 -0.046284392
0001e0 9b 58 01 bd 88 e2 b1 3d 72 26 93 3d 95 2e b1 3d
       -0.03157864 0.086857855 0.07185067 0.08651463
0001f0 19 86 a9 3d 78 af 8c 3d 6f ad a2 bd e6 3c c6 bc
       0.0827753 0.068694055 -0.07943236 -0.02419896
000200 3e 29 f3 3c 6d b9 50 bd 36 bf 80 3c 8b d8 44 3d
       0.029682752 -0.050958086 0.015716176 0.048058074
000210 43 68 89 3d 5b 51 a6 bd 71 53 8a bd 07 8b fd bd
       0.067093395 -0.08120986 -0.067541964 -0.12380033
000220 b4 c8 80 b9 eb 25 97 bd 9f ae bd bd af 42 e3 3d
       -0.00024563598 -0.07380279 -0.09261822 0.11096703
000230 0b ac 79 3d 86 f7 62 3d f0 f6 89 ba 70 e3 5e 3d
       0.06095509 0.055411838 -0.0010525864 0.05441612
000240 10 c1 e5 3d 95 aa df 3c 18 75 c5 3d 52 f2 24 bd
       0.112184644 0.02730302 0.096414745 -0.040270157
000250 be 0c a2 3d f8 ae 8b bc 7b 76 bf 3b dd f3 5a bd
       0.07912587 -0.017051205 0.0058429814 -0.053455222
000260 63 b2 bc bd 92 15 2d bd ee 60 15 3d 44 db f5 3c
       -0.09213712 -0.0422569 0.036469392 0.03001178
000270 26 3b b3 3d 7f 25 71 3c ae 88 a3 3d 09 70 d3 bc
       0.08751516 0.014718412 0.07985054 -0.025810258
000280 2f dd 71 bd 18 4f ac 3b d9 e4 8c bd e5 36 c4 bd
       -0.059048828 0.005258452 -0.06879587 -0.09580783
000290 6a 23 50 bd 6a a0 19 bc 69 9a 35 3b b8 ef 52 3d
       -0.050815023 -0.009376625 0.0027710444 0.051498145
0002a0 94 5f 17 3d e3 63 b2 bd 1c c3 60 3d d4 73 cd bd
       0.036956385 -0.08710458 0.05487357 -0.10031858
0002b0 aa b0 a9 bd d2 44 48 bc 58 9d 37 bd 41 5f cb bc
       -0.08285649 -0.012223439 -0.04482779 -0.024825694
0002c0 d6 ab 85 3d a6 46 83 3d 6c 4f 83 bd 41 76 ac bd
       0.06526916 0.064099595 -0.06411633 -0.08420993
0002d0 f9 b6 45 bd 11 17 b8 3c 02 13 1e 3d 32 c3 b0 3d
       -0.0482702 0.022471936 0.038592346 0.086309806
0002e0 38 58 0a 3c a2 b2 f4 bb d1 f6 80 bc 66 14 44 bb
       0.008443885 -0.0074675838 -0.015742691 -0.0029919385
0002f0 49 8b 2e bc 89 21 70 3d ab 6d a6 bd 41 c0 5d 3d
       -0.010653325 0.05862573 -0.08126386 0.054138426
000300 f1 99 63 bc 58 2a c1 bc 96 bc 9c bd ae 4f 09 bd
       -0.013891683 -0.023579761 -0.076531574 -0.033523254
000310 83 74 4a bc de 04 14 3d 80 eb 34 3d 85 fe b9 bc
       -0.01235688 0.036137454 0.044169903 -0.022704372
000320 35 f8 63 3d 8c 45 42 3d 5e e8 86 bd 1a dd 8b bd
       0.05565663 0.047429606 -0.06587289 -0.06829281
000330 3c d0 90 bd 67 6c 65 3d 35 f2 b1 3d 4e b3 8f bd
       -0.070709676 0.056011584 0.086887754 -0.070166215
000340 5a e4 32 bc 9a d5 39 3c d5 b6 8f 3d 1d e4 8e bd
       -0.010918701 0.0113424305 0.07017294 -0.06977103
000350 07 72 07 bd 8b e6 25 3d 32 17 6e 3b 8e 14 aa bd
       -0.03306773 0.040503066 0.0036329743 -0.08304702
000360 7e 7e 5b bd b9 7d 72 bd 7d d7 e9 bc a5 db 56 bd
       -0.05358743 -0.05920193 -0.028545136 -0.052455563
000370 c4 1e 4d bd 27 14 70 bb 78 13 70 bd e4 bb 77 3d
       -0.05007817 -0.0036633105 -0.058612317 0.06048192
000380 1e c0 57 3c db 7b 64 3d 7e 57 37 bd d3 9a cf bc
       0.013168363 0.05578218 -0.044761173 -0.02534238
000390 36 b9 a2 bd b7 79 6b 3d 7e 41 5f bc 19 bf 23 bd
       -0.079454824 0.057489123 -0.013626454 -0.039977167
0003a0 31 a1 6b bd cf 5b 95 bd e9 21 63 bd 2e 4c 36 bc
       -0.05752677 -0.07292902 -0.05545226 -0.011126561
0003b0 c0 54 eb bb 17 ee 9d 3d 75 09 df bb 90 57 79 bd
       -0.007181734 0.07711428 -0.0068065473 -0.06087452
0003c0 38 06 b4 3d 78 f4 80 3d 28 04 36 bd 21 1e 86 bd
       0.08790249 0.06296629 -0.044437557 -0.065487154
0003d0 be 69 17 bc b8 a7 fc 3c 6d d2 c4 bc ca 61 50 bd
       -0.0092415195 0.030841693 -0.02402612 -0.05087451
0003e0 79 a4 c0 bc e0 e5 b5 bd e9 bc 65 bd 4e 35 6b 3d
       -0.023515927 -0.08881736 -0.056088362 0.057423882
0003f0 cf e1 0d bd 52 4b a8 bd 45 ac 0b bd bc 98 f8 bc
       -0.034639176 -0.08217491 -0.034099836 -0.030346267

bias f4 [120]
000000 0b ef 98 bc 7f 6e 30 bc d9 a4 df bc b8 fd 44 bd
       -0.018668672 -0.010768532 -0.027300285 -0.048093528
000010 84 5f a2 bd 82 f1 36 3c bb d0 06 bc 55 f2 d2 3c
       -0.079283744 0.011165978 -0.008228476 0.025750319
000020 73 f2 2c ba 35 37 b8 bb a7 cf 1e bd bc db 02 be
       -0.0006597407 -0.0056218156 -0.03877225 -0.12779135
000030 3a a6 b2 bc 88 39 3e bd 40 41 fd bd 6c 04 a0 3c
       -0.021807779 -0.046441585 -0.12365961 0.019533359
000040 ad 39 71 bd 73 bf 6c bc e3 1a a7 bc aa b0 48 3d
       -0.058892895 -0.014449942 -0.020398563 0.048996605
000050 c7 40 cd bc e0 19 76 3b 69 3a 26 3c 13 73 3f bd
       -0.025055302 0.0037552044 0.010145762 -0.046740603
000060 b5 1c 90 3b 25 3c 96 bd e2 d7 87 bc cc 10 b5 3c
       0.0043979534 -0.073356904 -0.016582433 0.022102736
000070 ed 31 10 bd 39 79 97 3c 15 01 1b bd b7 c6 dd bc
       -0.035203863 0.01849042 -0.03784283 -0.027072294
000080 12 28 9e bd 75 59 02 3c 9d 02 f7 bc 4b c0 88 bd
       -0.077224866 0.0079558985 -0.030152613 -0.06677302
000090 d7 86 87 3c ce 55 64 3c 02 3d 0b 3d b1 bc b9 3c
       0.016543789 0.013936473 0.03399373 0.022672983
0000a0 15 ec 09 3d b6 15 07 bd 4d 7f fa bd 72 45 44 bd
       0.03367241 -0.03297969 -0.12231312 -0.04791779
0000b0 4d 3d 94 3c e5 b9 98 bd ba af f4 3b 3e 88 ce bd
       0.018095637 -0.074573316 0.0074672373 -0.1008458
0000c0 70 54 57 bc 61 96 a5 bb f3 e8 08 bd ad 41 0d 3b
       -0.01314269 -0.005053327 -0.033425283 0.0021554038
0000d0 7f d1 43 bc 14 e2 31 bd 8b 2d 34 3b 7b 77 c3 3c
       -0.011951803 -0.043428496 0.0027492966 0.023860684
0000e0 a3 30 86 3b ca 91 67 b9 24 b8 55 bc d9 0f 07 bb
       0.0040951534 -0.00022084187 -0.013044391 -0.0020608811
0000f0 b2 92 b1 bc 3f b8 72 bd 14 13 84 bc 24 53 97 b8
       -0.021676395 -0.059257742 -0.016122378 -7.215727e-05
000100 17 8d 6e bd 3c c5 68 bc 9c 61 45 ba 67 37 90 ba
       -0.058240023 -0.014207181 -0.00075294985 -0.0011002839
000110 f8 09 65 bc 73 1e ce 3b a8 99 a1 bc ef c6 bc bc
       -0.0139794275 0.006290251 -0.01972659 -0.023044078
000120 b4 57 8a bc d1 5c 94 bc 09 2d 63 bd fd 39 33 bd
       -0.016887523 -0.018110665 -0.05546287 -0.043756474
000130 a2 b9 43 bd 04 dc 9e bc e7 4b 3b bd 56 bc 2b bd
       -0.047784455 -0.019392021 -0.045726683 -0.041927658
000140 56 6d 86 bc 49 8c 5b bd f7 13 4f 3c d5 d4 9f bb
       -0.016409557 -0.053600583 0.012639037 -0.0048776665
000150 72 89 92 3c 6c 48 03 bd 7c 91 01 bd e3 9c d3 bc
       0.017887805 -0.03205149 -0.031632885 -0.025831645
000160 f9 b8 5f bc 01 d4 15 3c bf f0 dd bc 74 d0 63 bd
       -0.013654941 0.009144784 -0.027092336 -0.05561872
000170 3b 7c 33 bd e0 87 13 bb d7 01 49 bd 26 1e 50 bc
       -0.043819647 -0.0022511408 -0.04907402 -0.0127025
000180 42 ed ff bc 3a 70 a9 bc 06 6a 66 3c 9c 4c 97 3a
       -0.031241063 -0.020683397 0.014063364 0.0011543217
000190 89 0d 6e 3c 9a fc 73 bd bf 68 d1 bc b6 b8 3a bd
       0.014529594 -0.05956707 -0.025562642 -0.04558631
0001a0 59 12 96 39 2f 16 24 bd e6 0b 7d 3c 6f 11 2e 3c
       0.000286239 -0.04006022 0.015444731 0.010624274
0001b0 87 f2 2d bd 00 dc 05 3d f1 41 94 bc 1d 6b 2f bd
       -0.04246762 0.03268051 -0.01809785 -0.04282676
0001c0 35 83 11 bd ba 63 4d bd 3b dc 0d bd cb 66 bb 3b
       -0.03552552 -0.050143935 -0.034633856 0.005719041
0001d0 9a 02 f9 3c e8 97 92 bd 55 de 49 3c 26 ad 97 bc
       0.030396748 -0.0715788 0.0123210745 -0.01851518

weight f4 [4, 120]
000000 5b c2 66 3c be 19 ff 3d 94 78 d0 bc 3a 30 2e bd
       0.014084424 0.12456082 -0.025448121 -0.04252646
000010 db 8e af bd af 13 73 3c 75 30 26 3d ec 40 83 3c
       -0.085721694 0.014836236 0.040573556 0.016022168
000020 01 c0 4e bd ce da 99 3a 02 04 d9 3d f3 bc 00 be
       -0.050476078 0.0011738183 0.105964676 -0.12572078
000030 4e 2c ab 3d bd e9 b3 bd 70 72 ce bd 36 53 0f 3d
       0.0835806 -0.087848164 -0.10080421 0.034991466
000040 2a a9 11 3c 1e 36 26 3d 22 cf 3a bc 88 2e 92 bc
       0.0088904295 0.040578954 -0.011401923 -0.017844453
000050 82 27 aa 3d 05 df 2c bc fb a5 06 3b 89 aa a9 bc
       0.08308317 -0.010551219 0.002054571 -0.0207112
000060 e7 59 b8 3d 6d 52 22 bd 57 41 9b 3d 8f e6 24 3c
       0.090015225 -0.03962939 0.07580822 0.010064735
000070 ac 6c 55 bd 37 eb 7f 3c cd 17 45 3e 9a 14 59 3e
       -0.05210559 0.015620044 0.1924736 0.21199265
000080 37 d1 0c be d4 24 50 bc aa 9f 5e bd 19 60 0d be
       -0.13751684 -0.012704093 -0.054351486 -0.1380619
000090 5e 7f a6 bc 21 2c c1 b9 49 bd 15 bc 28 75 df 3d
       -0.020324405 -0.00036844707 -0.009139367 0.10911018
0000a0 fd c8 df 3d f6 86 1c 3d 1e c2 2e be 20 52 aa bd
       0.10927007 0.038214646 -0.17066237 -0.08316445
0000b0 71 6b 10 bd 80 ac 1e be 25 6f 2b 3b 28 83 9e bd
       -0.035258714 -0.15495491 0.0026158777 -0.0773986
0000c0 99 5d 5d 3e 05 4b 4f ba 56 8f 3f bd f0 97 62 bd
       0.21617736 -0.0007907602 -0.046767555 -0.05532068
0000d0 32 7f c6 3d 46 f4 29 3d e1 d9 48 b9 17 ff de 3a
       0.09692229 0.041492723 -0.00019154653 0.0017013279
0000e0 97 ae 2e 3c 11 a5 84 3d fe 4b 6d 3b 18 9f 6b 3c
       0.010661743 0.064767964 0.0036208625 0.014381193
0000f0 60 af 02 be 24 84 ad ba 1a de d5 3d 53 c1 d1 ba
       -0.12762213 -0.0013238234 0.10442753 -0.001600305
000100 70 c3 e1 bd 72 24 0a bd 8a b5 15 bd 55 98 00 3e
       -0.11023605 -0.033726163 -0.036550082 0.1255811
000110 7e 31 f0 3c 03 0d 3f 3d 1d a9 f1 3d fd 15 b0 bc
       0.029320475 0.04664327 0.11799834 -0.02149486
000120 cf 80 84 3c 5d a0 de bc b3 37 03 3c 8e 4a 7c bc
       0.016174702 -0.027176077 0.008008885 -0.015398635
000130 91 9b f8 bd bc 24 d0 3d 0c 6d a3 bd ec 19 be bd
       -0.12139047 0.101632565 -0.079797834 -0.09282288
000140 20 64 22 bb 31 47 98 bd 4c 9e 27 3e b7 3d 34 3c
       -0.0024778917 -0.07435454 0.16368979 0.011001042
000150 91 b0 d7 bb c9 6a d0 bd ca 64 c3 bc bc 65 b7 bd
       -0.0065823277 -0.10176618 -0.02385177 -0.08954951
000160 f8 32 ee 3d 61 73 55 bc b2 54 60 3d f7 fa da bd
       0.11630815 -0.013027997 0.05476827 -0.10692399
000170 75 bf ff bc 3a 4f 3e 3c e3 dc ae bd 07 48 8c 3d
       -0.031219224 0.011615569 -0.085382245 0.068496756
000180 4b 0c ad 3a a3 2e 61 3c e4 b1 1d 3c 32 63 f4 3b
       0.0013202516 0.013744029 0.009624932 0.007458114
000190 38 20 1f 3d ce 98 33 3c ef b8 10 bd 21 3d 56 bd
       0.038849086 0.010961724 -0.035332616 -0.05230439
0001a0 87 8a ae bc ec 96 dd bd 69 c3 88 3c 20 f0 38 bc
       -0.02130629 -0.10819802 0.016694741 -0.011287719
0001b0 dc f0 18 be e4 f5 fd 3d ff 53 97 3a ef 25 d2 bd
       -0.1493563 0.124004155 0.0011545419 -0.102611415
0001c0 d9 31 42 3b e2 fc a0 bd 3d fb 74 3a 10 2c f8 3d
       0.0029631762 -0.078607336 0.0009345299 0.12117779
0001d0 9d 60 6c 3c 35 ec d8 bd 77 f5 45 3d 9e 63 41 3c
       0.014427331 -0.10591928 0.048329797 0.011803536
0001e0 85 2f 96 3d b2 84 61 bc 23 fb 78 bc 8d 6d 1a bc
       0.073332824 -0.013764547 -0.015196594 -0.009425533
0001f0 d3 b9 82 3d b7 57 25 bd 6f b9 88 3c ac df 6b 3c
       0.063830994 -0.040366855 0.016689984 0.014396589
000200 eb 8a d0 3c 9f a2 39 3a f1 9f 7d bd c7 f0 58 be
       0.025456866 0.00070814224 -0.06192011 -0.211856
000210 2b ca 0e bd cc 5a 94 3d b7 6d 6b be 32 77 07 3d
       -0.03486077 0.07243881 -0.22991072 0.033072658
000220 eb 2f 14 3a 21 cd 91 bc de c1 e1 bc d7 c8 37 3d
       0.0005652892 -0.017798008 -0.027558263 0.04486927
000230 73 b2 c0 bd 0f 38 f9 3c a5 53 6e bb 9b ff 6c ba
       -0.094090365 0.030422239 -0.0036365774 -0.0009040774
000240 e7 00 d9 bb 04 08 32 bd 63 1c 6b bd 95 bf 2b 3c
       -0.006622422 -0.043464676 -0.05740012 0.010482688
000250 d6 64 82 3d f1 4b 72 bc 3e 18 67 3d 05 eb ae 3b
       0.06366889 -0.014788614 0.056419604 0.005338075
000260 89 58 f4 3c 4b 1f 25 3d c0 48 a6 3d 36 fa 86 3c
       0.029827373 0.040313046 0.08119345 0.016476732
000270 e1 bc 0d 3b 15 92 ab 3d e9 22 a4 3c 06 b5 4d 3d
       0.0021627473 0.08377472 0.020036178 0.050221466
000280 6c 90 db 3b 74 c7 16 bd d6 db f4 bd f2 99 e4 3b
       0.006700566 -0.036811307 -0.11955993 0.0069763595
000290 a5 9b 86 3c e3 c2 ea bc a9 b8 d0 3b 33 6f 5c be
       0.016431639 -0.028657382 0.0063696695 -0.21526794
0002a0 43 7f 16 3d 74 da 16 3c 72 6a 1c bc fa 5f 59 3d
       0.03674246 0.009207357 -0.009546863 0.053070046
0002b0 20 c8 87 bd 35 92 0a bd 2a 90 09 3a cc ce 0a 3c
       -0.06629968 -0.03383084 0.00052476174 0.008472156
0002c0 30 d4 5f 3d 7e 92 6d 3d 44 64 2a 3a 0f 43 f9 bc
       0.054645717 0.058001034 0.0006499926 -0.030427484
0002d0 35 fc 47 bc 76 78 da 3b 33 66 a8 bd 50 df 21 bb
       -0.012206127 0.006667192 -0.08222618 -0.0024699755
0002e0 73 82 f2 3c 94 a5 ff 3c da 9f 15 3c ee 26 d5 bd
       0.029603219 0.031206883 0.00913235 -0.10407816
0002f0 89 83 bc bc c1 dc 83 bd 5f e5 5f bd 43 ad d9 3c
       -0.02301194 -0.0643859 -0.054662105 0.026571875
000300 3f 4c 9e 3c a2 69 da 3c ec 7f 91 3d 1e fc 74 bd
       0.019323466 0.026661698 0.07104477 -0.05981075
000310 1a 1a 71 3d b3 82 e2 bd 25 85 5b bd 23 1b 04 be
       0.058862783 -0.11060085 -0.053593773 -0.12900977
000320 44 8e 00 bb 2f aa af 3c f0 13 10 3e e8 e8 3e 38
       -0.0019616047 0.021443455 0.14070106 4.551644e-05
000330 c4 1a cd 3c f2 58 df bc 28 4e 25 3a 9f 04 53 3d
       0.025037177 -0.027264092 0.00063058967 0.05151808
000340 bf 07 db 3c fe ff 7f 3c 0f c6 61 bd 18 b1 64 bd
       0.026737092 0.015624998 -0.055120524 -0.055832952
000350 c2 a5 9a 3d c5 2e 9e bc 37 ff f0 bc bf 7a a5 bd
       0.07551147 -0.01930941 -0.02941857 -0.080800526
000360 b2 b7 d6 ba 50 d2 c8 3b 68 c8 5b b9 f4 ea f7 3b
       -0.001638165 0.006128587 -0.00020960125 0.0075658504
000370 7e 7a 10 3d a8 b9 3d 3b d2 b4 3c bd c7 49 f8 bd
       0.035273068 0.002894977 -0.04607088 -0.12123447
000380 21 61 aa 3c 3b 80 c5 ba 7a 2d 3d bc c5 ec f9 bc
       0.020798268 -0.0015068123 -0.011546487 -0.030508408
000390 5d 94 03 3e 47 7f 58 bd 65 08 e6 3a 7d cf df 3d
       0.12849565 -0.052855756 0.0017550109 0.10928247
0003a0 d6 ce 00 be c7 9a 28 be fa 88 72 bc a6 8b a1 bc
       -0.12578902 -0.16465293 -0.014803166 -0.01971991
0003b0 a5 fc 49 3c f6 aa 50 bd d6 4e 87 3d 0c d5 0e 3d
       0.012328302 -0.05094429 0.06606834 0.034871146
0003c0 4f ee a4 bd 9e 4b a2 bd 56 6b 1d 3d ac 28 98 3c
       -0.08053266 -0.07924579 0.03843244 0.018574081
0003d0 a4 64 87 bc f8 5b 8f 3d 4e 45 af bc 8a 30 7d 3b
       -0.016527481 0.069999635 -0.021395352 0.0038633668
0003e0 8b 29 0a 3d 1f 49 df 39 72 81 78 bd 76 69 3b bd
       0.033731025 0.00042588354 -0.060670324 -0.045754872
0003f0 85 2a 4d bd 80 1e 4a bd 76 3d 4b be 5c 84 24 3c
       -0.050089378 -0.049345493 -0.19847664 0.010041323

bias f4 [4]
000000 34 96 5f 3b e4 5b 4d 3a 52 aa ec b8 03 44 da 39
       0.0034116628 0.0007833822 -0.000112850816 0.00041630873
