model_scripted.pt (torch, 71861 bytes, 7 tensors)

weight f4 [128, 37]
0	0xbf8067c8	-1.0031672
1	0x3f413e08	0.7548528
2	0xbeba754e	-0.3641762
3	0xbe84855e	-0.25883
4	0x3f1eaf5f	0.61986345
5	0xbe42d614	-0.19026977
6	0xbf61bf9e	-0.8818301
7	0x3ec4c1c2	0.38429075
8	0xbc908c7e	-0.017645117
9	0xbef8aa7e	-0.48567575
10	0x3f306013	0.688966
11	0xbec01cf4	-0.3752209
12	0x3ed78fb1	0.42101815
13	0xbddc0cbb	-0.10744616
14	0xbefc3f28	-0.49266934
15	0xbd413156	-0.04716619
16	0x3dc8e798	0.09809798
17	0x3d130a73	0.035898637
18	0x3ea31b06	0.31856555
19	0x3f7e7d5a	0.9941002
20	0x3ec2efe0	0.38073635
21	0xbe5ea738	-0.21743476
22	0x3f8de18c	1.1084456
23	0x3ea49149	0.32142094
24	0xbe30a479	-0.17250241
25	0xbdeb5481	-0.11490727
26	0xbdecf3d1	-0.11569942
27	0xbc9293b8	-0.017892703
28	0x3e7f3715	0.24923356
29	0x3d0d2e58	0.034468025
30	0xbe9f231c	-0.31081474
31	0xbe4928e7	-0.1964451
32	0xbf62e296	-0.8862699
33	0x3fad216e	1.3525827
34	0xbea3a558	-0.31962085
35	0xbf94ef09	-1.1635448
36	0x3ef34217	0.4751136
37	0x3f34540d	0.7044075
38	0x3f850be5	1.0394255
39	0x3f116579	0.5679546
40	0xbe251ff3	-0.16125469
41	0x3e5633c5	0.20918186
42	0x3f20e13f	0.628437
43	0xbfaf66ab	-1.3703207
44	0x3ecfc110	0.40576982
45	0x3e3da804	0.18521124
46	0x3e7fcc28	0.24980223
47	0xbfa2c96d	-1.271772
48	0x3ed15c79	0.40890864
49	0xbf297fb9	-0.66210514
50	0x3e530bb4	0.20609933
51	0xbf0c3104	-0.5476229
52	0xbed1d815	-0.4098517
53	0x3f2a134e	0.66435707
54	0x3eba9dda	0.36448556
55	0x3eff0149	0.49805668
56	0x3f9622ff	1.172943
57	0xbe74dbc3	-0.23911957
58	0xbeb51ae1	-0.3537207
59	0xbe232b78	-0.15934551
60	0x3f2a0ad7	0.6642279
61	0xbd4ce3f2	-0.050022073
62	0x3f30fd94	0.6913693
63	0xbd53fd24	-0.051755086
64	0xbf4bc22a	-0.79593146
65	0xbebcbd06	-0.36862963
66	0xbe3c85dc	-0.18410438
67	0x3dba8371	0.09107102
68	0xbf86340f	-1.0484637
69	0x3ed743d2	0.4204393
70	0xbe961e35	-0.2931992
71	0xbd329208	-0.043596298
72	0xbfaf4cc7	-1.3695306
73	0x3f914a37	1.1350774
74	0xbeb39523	-0.3507472
75	0xbefc996b	-0.493358
76	0xbf04b7a6	-0.51842725
77	0xbef262c8	-0.4734099
78	0xbe501baa	-0.20323053
79	0xbc5835d4	-0.013196427
80	0x3c86b183	0.016442066
81	0x3e963d13	0.2934347
82	0x3f4f05f9	0.8086849
83	0x3e25aff1	0.16180398
84	0xbf29937d	-0.66240674
85	0xbf6248a2	-0.8839208
86	0xbddcbeb9	-0.10778565
87	0xbe8580fb	-0.26074967
88	0x3daf02d8	0.08545464
89	0x3ddd29a1	0.10798956
90	0x3ea2a8b1	0.31769326
91	0xbe003611	-0.12520625
92	0x3e5caa53	0.21549349
93	0x3c9aec76	0.018911581
94	0xbe6a625e	-0.22889087
95	0xbe7b53b9	-0.24543656
96	0x3eba71a0	0.36414814
97	0x3dfaebf9	0.122520395
98	0xbe03db30	-0.12876582
99	0x3e7c33aa	0.24629083
100	0xbdaa78b5	-0.08323804
101	0x3daa174a	0.08305223
102	0xbd1a2ede	-0.037642352
103	0xbdeaffba	-0.11474557
104	0x3e8f556d	0.27994862
105	0x3f590a26	0.8478111
106	0xbfbf6ff3	-1.4956039
107	0x3f698c49	0.91229683
108	0xbf7d2cc7	-0.9889645
109	0xbe538cdf	-0.20659207
110	0x3f6acd0d	0.9171913
111	0xbf06aa78	-0.52603865
112	0xbf2331a4	-0.6374762
113	0x3e127dc5	0.1430579
114	0xbec4f373	-0.38466987
115	0x3e1d1488	0.15339863
116	0xbee76cbd	-0.45200148
117	0x3e123983	0.14279751
118	0xbe0459b0	-0.12924838
119	0xbe2146c9	-0.15749659
120	0xbe2930ad	-0.16522475
121	0x3e29757e	0.16548726
122	0x3e30c0fe	0.1726112
123	0x3ec270c4	0.37976658
124	0x3f1b3e1d	0.6064165
125	0xbdc6a6e2	-0.09699799
126	0x3eb85b83	0.36007318
127	0xbd8dcbd9	-0.069236465
128	0xbe9615bb	-0.29313454
129	0xbed31f45	-0.41234794
130	0xbedb951e	-0.42887205
131	0x3dc6ea80	0.09712696
132	0x3d495131	0.049149696
133	0x3ecaa0aa	0.39575702
134	0xbdd111ae	-0.1020845
135	0xbe30049b	-0.17189257
136	0xbeccf307	-0.40029165
137	0xbcec0dca	-0.028815169
138	0xbed9b895	-0.42523637
139	0x3f1fb112	0.6237956
140	0x3e926a10	0.28596544
141	0x3daacdc8	0.08340031
142	0x3f0a22f0	0.5395956
143	0x3f68c85b	0.9093072
144	0xbee02067	-0.4377472
145	0x3e91907d	0.28430548
146	0x3da69600	0.08134079
147	0xbf5d4062	-0.86426365
148	0xbf39d2bb	-0.72587174
149	0xbdb2228b	-0.08697995
150	0xbe66f6c6	-0.22555074
151	0x3d163f4a	0.03668145
152	0xbd905f2a	-0.07049401
153	0x3df39b3c	0.11894843
154	0x3ea05b0e	0.3131947
155	0xbdd632b8	-0.104588926
156	0xbe5526f5	-0.20815642
157	0x3cd0bc40	0.02548039
158	0xbf89abb7	-1.0755528
159	0x3f479b10	0.7797098
160	0xbf4252d6	-0.7590765
161	0xbe69e6ad	-0.22841902
162	0x3e0caab9	0.13737
163	0xbc93df87	-0.018050922
164	0x3ebefe85	0.37303558
165	0xbd436340	-0.047702074
166	0x3cb7bdf7	0.02242945
167	0x3e47e8e8	0.1952244
168	0x3fa91c74	1.3211808
169	0xbe4a54a8	-0.19758856
170	0x3f76bccf	0.9638185
171	0xbed93a27	-0.4242718
172	0xbd0ddb0b	-0.034632724
173	0x3e2596d2	0.16170815
174	0x3f18c779	0.5967937
175	0xbde847e2	-0.113418356
176	0x3edf6c68	0.43637395
177	0xbe59ff29	-0.21288742
178	0x3f3d630b	0.7397925
179	0xc014a9f5	-2.3228734
180	0x3e254d02	0.16142657
181	0x3f0aa04f	0.5415086
182	0xbe2b3351	-0.16718794
183	0x3f655341	0.8958016
184	0xbe7d26f7	-0.24721895
185	0xbd15ebdd	-0.03660189
186	0xbe7928b5	-0.24331935
187	0xbea429ed	-0.32063237
188	0x3f0a59d9	0.54043347
189	0xbe6840ee	-0.22681019
190	0xbec86a3b	-0.39143547
191	0x3dce4f31	0.10073698
192	0x3e8647df	0.26226708
193	0x3da2235c	0.079169005
194	0xbdb32593	-0.08747401
195	0xbf544aff	-0.82926935
196	0x3e0cf890	0.13766694
197	0x3e8c3f80	0.27392197
198	0xbdc323df	-0.09528326
199	0xbe441893	-0.1915
200	0xbea6b5e5	-0.3256065
201	0xbec6576a	-0.38738567
202	0x3f30a0b6	0.68995225
203	0x3e9e19e5	0.3087913
204	0x3c512827	0.012765921
205	0xbe396174	-0.18103582
206	0xbd24e82c	-0.04026048
207	0xbf1a75fd	-0.60336286
208	0xbe8c4af2	-0.2740093
209	0x3e8a7d65	0.27048793
210	0xbe29f988	-0.16599095
211	0x3d908ba4	0.07057884
212	0xbe4c706c	-0.1996476
213	0x3cbd46f8	0.02310513
214	0x3ecaf592	0.3964048
215	0x3f6cf28a	0.92557585
216	0xbf5d9815	-0.86560184
217	0x3f30cb06	0.6905979
218	0xbe56f328	-0.20991194
219	0x3f8261d8	1.018611
220	0xbf2ff860	-0.68738365
221	0xbf42a414	-0.76031613
222	0xbdeaf821	-0.11473108
223	0x3e93c582	0.28861624
224	0x3e6542ae	0.22388718
225	0x3e524aac	0.20536298
226	0x3dbaee58	0.09127492
227	0xbe5a36d6	-0.21309981
228	0x3e03496d	0.12820978
229	0x3e483a83	0.1955357
230	0x3ddd2e76	0.10799877
231	0x3dfe8d6b	0.12429317
232	0x3ebe7215	0.37196413
233	0xbbd14041	-0.0063858335
234	0x3f0fc395	0.5615781
235	0xbe8ddddb	-0.27708325
236	0x3f06db11	0.5267802
237	0xbdb9cf6c	-0.09072766
238	0x3eb11a5d	0.34590426
239	0xbf5f99f5	-0.87344295
240	0x3e8f7b2e	0.28023666
241	0x3d2cf24a	0.042223252
242	0xbf155e45	-0.5834697
243	0xbef6fdb6	-0.4824044
244	0x3f4fcf05	0.8117526
245	0x3efe5c1d	0.49679652
246	0x3d1a7c0f	0.037715968
247	0xbef3d2fb	-0.47621903
248	0xbdeec36e	-0.11658369
249	0x3f467b52	0.7753192
250	0x39fb9e5d	0.0004799244
251	0x3edc68c0	0.43048668
252	0x3e3b8607	0.18312846
253	0x3ee286de	0.4424352
254	0x3f5f28da	0.8717171
255	0x3d629a40	0.055322886

bias f4 [128]
0	0x401eba70	2.4801292
1	0x404a17f3	3.1577117
2	0x3fe1f5fd	1.7653195
3	0x40049fd3	2.072255
4	0x3fe14d65	1.7601744
5	0x4030e14f	2.7637517
6	0x402351f6	2.5518775
7	0x40264a5f	2.5982893
8	0x400c6d18	2.1941586
9	0x3ff36868	1.9016237
10	0x401cc6bc	2.4496298
11	0x3fcc7da5	1.5975844
12	0x3fe7419f	1.8066901
13	0x40208081	2.5078433
14	0x404722d0	3.1114998
15	0x3febeef5	1.8432299
16	0x401ee08d	2.4824555
17	0x3f0fd970	0.5619116
18	0x3ff10df4	1.8832383
19	0x40280282	2.625153
20	0x40161002	2.344727
21	0x4008f01c	2.139655
22	0x4019df92	2.4042706
23	0x3fa5128e	1.2896287
24	0xbc77d8ad	-0.015127343
25	0x4018bf7e	2.3866878
26	0x3fcf5612	1.6198142
27	0x4020db5c	2.5133886
28	0x4001a235	2.0255253
29	0x400f760a	2.2415795
30	0x40052e00	2.0809326
31	0x3fd464f3	1.6593307
32	0x3fac8621	1.3478433
33	0x400f9040	2.2431793
34	0x40100694	2.2504015
35	0xbe8cb5b1	-0.2748237
36	0x3fe21594	1.7662835
37	0x3fe39763	1.7780575
38	0x40848858	4.1416435
39	0x40142215	2.3145802
40	0x3f8b44bf	1.0880355
41	0x3f9617d0	1.1726017
42	0x400c2801	2.1899416
43	0x40240d4c	2.5633116
44	0x400a728d	2.1632416
45	0x40102308	2.2521381
46	0x4015bfa6	2.3398223
47	0x404fa73c	3.2445822
48	0x40201e92	2.5018659
49	0x3f4ae5a3	0.7925665
50	0x401c25bb	2.439803
51	0x401add29	2.4197485
52	0xbd6aabbc	-0.057292685
53	0x3e726f9f	0.23675393
54	0x3ffa09f6	1.953429
55	0x3fd0ae92	1.6303275
56	0x403e74be	2.9758754
57	0x40363c89	2.8474448
58	0x401bffbc	2.4374838
59	0x3fc919e4	1.5711026
60	0x40153d69	2.3318732
61	0x403e9878	2.978056
62	0x40286b63	2.6315544
63	0x3fb8a207	1.4424447
64	0x3fee3a2c	1.8611503
65	0x40292b5c	2.6432714
66	0x3ff3d739	1.9050056
67	0x4013d0b5	2.3096135
68	0x40234e98	2.551672
69	0x4019065c	2.3910131
70	0x3fdf8262	1.7461665
71	0x400a2711	2.1586344
72	0x4038de09	2.888552
73	0xbe9ad508	-0.30240655
74	0x3fb44536	1.4083622
75	0x401d3cad	2.4568284
76	0x4020ab90	2.5104713
77	0x40145246	2.3175216
78	0x401a2f30	2.40913
79	0x40057066	2.0849853
80	0x3f3039af	0.6883802
81	0x400fac5e	2.2448955
82	0x401f1771	2.4858057
83	0x4007c75d	2.1215432
84	0x3fdabfb2	1.7089751
85	0xbed318a1	-0.41229728
86	0x4049bf08	3.1522846
87	0x40133f52	2.3007398
88	0x4013d9d1	2.3101695
89	0x4003e965	2.0611203
90	0x40298312	2.648625
91	0x400897b1	2.1342585
92	0x3fbe9354	1.4888711
93	0x40164462	2.3479238
94	0x402a29ea	2.6588082
95	0x3f416fce	0.75561225
96	0x4035e651	2.8421824
97	0x401ef141	2.483475
98	0x401ebfe0	2.4804611
99	0x3ff1e48c	1.8897872
100	0x40137bb0	2.3044243
101	0x3fe1368f	1.7594775
102	0x4004a6de	2.0726848
103	0x4040c82d	3.0122178
104	0x400eb82a	2.2299905
105	0x4001edff	2.0301511
106	0x3ffd41bb	1.9785684
107	0x400f2299	2.2364867
108	0x4018802b	2.3828228
109	0x40189808	2.3842793
110	0x3fdefdd3	1.7421211
111	0x4035563b	2.833388
112	0x4013a1dc	2.306754
113	0x3feaaf76	1.8334796
114	0x40035979	2.052336
115	0x3f41c1c7	0.75686306
116	0xbc3e17f3	-0.01160239
117	0x400669f6	2.1002173
118	0x3ec1c331	0.37844232
119	0x401cc1c6	2.449327
120	0x402857f5	2.6303685
121	0x40115e1b	2.2713687
122	0xbfa82ede	-1.3139303
123	0x3ffbdc9a	1.9676697
124	0x404a328e	3.1593356
125	0x3f6ce184	0.9253161
126	0x4046f319	3.1085875
127	0x3fc40db8	1.5316687

weight f4 [64, 128]
0	0x3f2251b1	0.634059
1	0xbf21e913	-0.6324627
2	0x3f50bd3f	0.81538767
3	0x3d932d03	0.0718632
4	0x3f1dc111	0.6162272
5	0x3ecd1227	0.40052912
6	0x3f1c96d3	0.6116764
7	0x3ee82bfb	0.45346054
8	0xbe2e38ed	-0.17013903
9	0x3f003e36	0.50094926
10	0xbf4f475d	-0.80968267
11	0x3e9b84f0	0.3037486
12	0x3e7fbd16	0.24974474
13	0x3f016033	0.50537413
14	0x3f3128ba	0.6920277
15	0x3f124f46	0.5715221
16	0x3f74fd29	0.9569879
17	0xbf3ee198	-0.7456298
18	0x3ecb2fda	0.39684945
19	0x3ebdac8e	0.3704571
20	0x3f0df3b9	0.55450016
21	0x3ed6a077	0.419193
22	0x3f1ae9bb	0.60512894
23	0x3f9eb2fc	1.2398372
24	0x3f375b13	0.71623343
25	0x3f107398	0.5642638
26	0x3f2680eb	0.65040463
27	0x3e926090	0.28589296
28	0x3f48d636	0.7845186
29	0x3ef57126	0.47937888
30	0x3ef2da67	0.47432253
31	0xbf0b0129	-0.54298645
32	0x3ed310e4	0.41223824
33	0x3ee28c88	0.44247842
34	0x3e43d2cf	0.19123386
35	0x3f4bbc9f	0.7958469
36	0x3e9f548e	0.31119198
37	0x3f3b7001	0.7321778
38	0xc05370ee	-3.3037677
39	0x3f17b7a6	0.592646
40	0x3f0add65	0.5424407
41	0x3f78a336	0.9712404
42	0xbf381e0b	-0.7192084
43	0x3f3eddf0	0.745574
44	0x3f098606	0.5372013
45	0x3f474840	0.7784462
46	0x3f227db6	0.6347307
47	0x3f6a1a7d	0.9144667
48	0x3f40eaa6	0.75358045
49	0x3ee5f358	0.4491222
50	0x3ef42146	0.47681636
51	0x3f427107	0.75953716
52	0x3f96c1a9	1.177785
53	0x3f1e78eb	0.61903256
54	0x3e9d2cab	0.3069814
55	0x3efd7db8	0.49509978
56	0x3e5240d3	0.20532541
57	0x3f4f949b	0.8108613
58	0x3f570d61	0.8400479
59	0xbf551914	-0.8324139
60	0x3f604fce	0.8762177
61	0x3f535941	0.82558066
62	0x3f0d3291	0.55155283
63	0x3f7fcbef	0.9992055
64	0x3ec755d0	0.38932657
65	0xbf062252	-0.5239612
66	0xbf37b27f	-0.7175674
67	0x3c4e516e	0.012592657
68	0x3f2b099f	0.66811556
69	0x3f202788	0.6256032
70	0xbf18b54a	-0.59651625
71	0x3ec54263	0.38527212
72	0x3f83fa75	1.0310808
73	0x3f0e278d	0.555291
74	0x3f8138e8	1.0095491
75	0x3f189e9f	0.59617037
76	0x3f35741a	0.7088028
77	0x3f41d5b0	0.75716686
78	0x3e69866e	0.22805187
79	0x3ed3edd0	0.41392374
80	0x3fa065ed	1.2531105
81	0x3edf1286	0.4356882
82	0x3df1dac5	0.11809305
83	0x3f2dd057	0.67896026
84	0x3ec0c24c	0.37648237
85	0x3f648de9	0.8927904
86	0x3f8462eb	1.0342687
87	0x3ebced04	0.3689958
88	0x3f90cc17	1.1312283
89	0x3f0cbde5	0.54977256
90	0x3f8f000c	1.1171889
91	0xbf1ba4bb	-0.60798234
92	0xbf7191cf	-0.9436311
93	0xbf16d882	-0.58924115
94	0x3f388de2	0.72091496
95	0xbec0b810	-0.3764043
96	0x3f013274	0.5046761
97	0x3ee23319	0.4417961
98	0x3edd18f3	0.43183097
99	0x3eb03247	0.3441336
100	0x3ef0fb00	0.47066498
101	0x3f91b661	1.1383783
102	0x3eebd1a0	0.4605837
103	0xbd862b24	-0.06551197
104	0x3f0ef612	0.55844223
105	0x3ea250c9	0.3170226
106	0x3f23f4e4	0.6404555
107	0x3e7408b1	0.2383144
108	0x3f159506	0.58430517
109	0x3e4f05e5	0.20217092
110	0x3f034ef7	0.51292366
111	0x3f3d378e	0.73912895
112	0xbfa2759f	-1.2692145
113	0x3f11e2a5	0.5698646
114	0x3f1fd09a	0.62427676
115	0xbecbd671	-0.39812043
116	0xbe056770	-0.1302774
117	0xbef7646f	-0.48318812
118	0xbf38df3e	-0.7221564
119	0x3f64a36a	0.8931185
120	0x3f689001	0.9084473
121	0x3f1e09c7	0.6173367
122	0xbf9325d6	-1.1495922
123	0x3f2b7dab	0.6698863
124	0x3ddb1ed0	0.106992364
125	0xbfb95612	-1.4479392
126	0x3e6592b8	0.2241925
127	0x3f0423e8	0.5161729
128	0x3f313e39	0.6923557
129	0xbf2f3f04	-0.6845553
130	0x3f431ace	0.76212776
131	0xbd9679ad	-0.073474266
132	0x3f22e394	0.63628507
133	0x3f08a08f	0.5336999
134	0x3f2b688a	0.6695639
135	0x3eb57402	0.3544007
136	0xbe550667	-0.20803224
137	0x3f05133d	0.5198248
138	0xbf46f230	-0.777133
139	0x3e650925	0.2236677
140	0x3e49d189	0.19708838
141	0x3f0bb44f	0.54572004
142	0x3f0a1efb	0.5395352
143	0x3f1c94c2	0.61164486
144	0x3f570686	0.8399433
145	0xbf1bd9bc	-0.6087911
146	0x3ecd32d0	0.4007783
147	0x3eb2b002	0.34899908
148	0x3efbe1e2	0.49195772
149	0x3ea8f2e2	0.32997805
150	0x3f1ae1e7	0.6050095
151	0x3fa70657	1.304881
152	0x3f3eca4e	0.7452744
153	0x3f324acd	0.69645387
154	0x3f1fad4c	0.62373805
155	0x3eba73b1	0.3641639
156	0x3f2bc375	0.6709512
157	0x3efca237	0.4934251
158	0x3ec0ac23	0.3763133
159	0xbed57758	-0.41692615
160	0x3efae771	0.490047
161	0x3ed33c63	0.4125701
162	0x3e8cb398	0.2748077
163	0x3f27fac8	0.65617037
164	0x3e9e9136	0.30970162
165	0x3f60e7df	0.8785381
166	0xc0522a0d	-3.2838166
167	0x3f02a4af	0.5103254
168	0x3f1ecb2f	0.62028784
169	0x3f55c28c	0.8349998
170	0xbf4709be	-0.7774924
171	0x3f1f8fab	0.62328595
172	0x3f0f9121	0.56080824
173	0x3f48fe21	0.7851277
174	0x3f48a306	0.78373754
175	0x3f642aad	0.8912762
176	0x3f1d3348	0.61406374
177	0x3ec99229	0.39369324
178	0x3ebe6b78	0.37191367
179	0x3f41f351	0.75761896
180	0x3f96ef94	1.1791863
181	0x3f0ee7af	0.5582227
182	0x3e9d9bb5	0.30782858
183	0x3f1487e4	0.5801985
184	0x3e5fc150	0.21851087
185	0x3f511ab8	0.81681395
186	0x3f68d3e6	0.9094833
187	0xbf33cb97	-0.7023253
188	0x3f6f7604	0.9353945
189	0x3f48d70f	0.78453153
190	0x3f06ba46	0.5262798
191	0x3f773b9a	0.9657532
192	0x3ecf946f	0.40542933
193	0xbee6e817	-0.45098945
194	0xbf1ed4a1	-0.62043196
195	0xbd827421	-0.06369806
196	0x3f32cddd	0.6984537
197	0x3f481574	0.78157735
198	0xbf353bf4	-0.70794606
199	0x3eaab54b	0.3334144
200	0x3f7b99c0	0.9828148
201	0x3f1d0f52	0.613515
202	0x3f89eafe	1.0774839
203	0x3f227ee8	0.63474894
204	0x3f299210	0.662385
205	0x3f54f469	0.8318544
206	0x3e6c43f9	0.23072805
207	0x3edb9d5a	0.42893487
208	0x3fa91f57	1.3212689
209	0x3ed87e91	0.42284063
210	0x3d01ad5a	0.03165946
211	0x3f29a802	0.66271985
212	0x3ee8c2d2	0.45461136
213	0x3f782aff	0.96940607
214	0x3f858180	1.0430145
215	0x3eca77d5	0.3954455
216	0x3f9594cd	1.1686035
217	0x3f35cfb6	0.71020067
218	0x3f87614e	1.057657
219	0xbf0c484a	-0.54797804
220	0xbf7f65ae	-0.99764526
221	0xbf1ad9ce	-0.60488594
222	0x3f40d35f	0.75322527
223	0xbeb1ccd6	-0.3472659
224	0x3f0ce1df	0.5503215
225	0x3f137058	0.575933
226	0x3f04d846	0.5189251
227	0x3e9cb574	0.30607188
228	0x3ee99d62	0.45627886
229	0x3f9f88b7	1.2463597
230	0x3efc9345	0.49331108
231	0xbd93742c	-0.071998924
232	0x3f0080cd	0.50196534
233	0x3ea57b6d	0.3232073
234	0x3f441c53	0.7660572
235	0x3e616592	0.22011402
236	0x3ee2ec05	0.44320694
237	0x3eb66e90	0.35631227
238	0x3ee9faad	0.45699063
239	0x3f30ce4b	0.6906478
240	0xbfa6b45f	-1.3023795
241	0x3f0120b3	0.5044052
242	0x3f252cfe	0.6452178
243	0xbe87e22a	-0.26539737
244	0xbe743dbf	-0.2385168
245	0xbef0d6cc	-0.47038877
246	0xbf2da707	-0.6783299
247	0x3f850de2	1.0394862
248	0x3f5811e8	0.8440232
249	0x3f292107	0.6606602
250	0xbf981812	-1.1882346
251	0x3f222c33	0.6334869
252	0x3e3efd70	0.18651366
253	0xbfb165df	-1.3859214
254	0x3ded49e1	0.11586357
255	0x3ef07f6d	0.46972218

bias f4 [64]
0	0xbf18663c	-0.59531
1	0xbf12ec58	-0.5739188
2	0xbf0eb573	-0.5574562
3	0xbf269119	-0.6506515
4	0xbf101bbb	-0.56292313
5	0xbdd1fe6e	-0.10253607
6	0xbf0eb2af	-0.557414
7	0xbf359b77	-0.70940346
8	0xbf0df3f1	-0.5545035
9	0xbde381fe	-0.111087784
10	0xbf1d2de1	-0.6139813
11	0xbf127209	-0.57205254
12	0xbf2707ac	-0.6524608
13	0xbf2c671c	-0.6734483
14	0xbf2e15cf	-0.6800203
15	0xbb8b2d0e	-0.0042473143
16	0xbd0b85c9	-0.034063134
17	0xbeac660c	-0.33671606
18	0x3fe5d573	1.7955765
19	0xbf2bda4d	-0.67129976
20	0xbf12184e	-0.57068336
21	0xbf13ef61	-0.5778714
22	0xbf175165	-0.59108573
23	0xbd974eba	-0.07388063
24	0xbf1fbec1	-0.6240044
25	0xbf112b7e	-0.5670699
26	0xbdb3b948	-0.08775574
27	0xbf05fd57	-0.5233969
28	0xbf2e2d32	-0.6803771
29	0xbf28ce18	-0.65939474
30	0xbc5bd6be	-0.013417898
31	0xbf346583	-0.70467395
32	0xbf206b2f	-0.6266355
33	0xbd00af8d	-0.03141742
34	0xbf2fdb8d	-0.6869438
35	0xbf21c4a0	-0.6319065
36	0xbf009fb0	-0.50243664
37	0xbf1b3066	-0.60620725
38	0xbf2b2dca	-0.66866744
39	0xbd05a2e4	-0.032626048
40	0xbf2f168a	-0.68393767
41	0xbdbf48e3	-0.09340074
42	0xbf2c796b	-0.6737277
43	0xbf3152d7	-0.6926703
44	0x3ff26e7a	1.8939965
45	0xbf27368b	-0.653176
46	0xbf181e1c	-0.59420943
47	0xbd7edb9d	-0.06222116
48	0x3f749bb2	0.9555007
49	0xbf054038	-0.52051115
50	0xbf295d4e	-0.66157997
51	0xbf27e1ec	-0.65579104
52	0xbf10cdfe	-0.5656432
53	0xbf0bf31c	-0.5466783
54	0xbf2d7d16	-0.6776899
55	0xbf171b1a	-0.5902573
56	0xbf269a06	-0.6507877
57	0xbf2ad0a8	-0.66724634
58	0x3d798c90	0.060925066
59	0xbf2ef369	-0.68340164
60	0xbf0a3073	-0.5398018
61	0x3f94f508	1.1637278
62	0xbd3abf4e	-0.0455926
63	0xbc952833	-0.018207645

weight f4 [32, 64]
0	0x3f1fbeaf	0.62400335
1	0x3f47a61a	0.77987826
2	0x3f4fe1ea	0.8120409
3	0x3f317bb9	0.6932941
4	0x3f40ab5c	0.75261474
5	0x3ddeac75	0.10872737
6	0x3f3c0c46	0.7345623
7	0x3f407e6c	0.75192904
8	0x3f409e82	0.75241864
9	0x3dea17b4	0.11430302
10	0x3f2fb068	0.6862855
11	0x3f4694a4	0.7757056
12	0x3f49bbd9	0.7880226
13	0x3f53c13a	0.82716715
14	0x3f4ca64d	0.79941255
15	0xbd2da3db	-0.042392593
16	0xbd5447a5	-0.051826138
17	0x3f524359	0.82134014
18	0x4195009f	18.625303
19	0x3f460dc6	0.77364767
20	0x3f33bb8b	0.7020804
21	0x3f468c8f	0.77558225
22	0x3f16a476	0.588447
23	0xbde4bbca	-0.111686304
24	0x3f332613	0.6997997
25	0x3f1b2e48	0.60617495
26	0x3d544775	0.05182596
27	0x3f1e307c	0.6179273
28	0x3f333046	0.69995534
29	0x3f440c01	0.76580817
30	0x3d96c936	0.07362597
31	0x3f3106ae	0.6915082
32	0x3f2eae51	0.68234736
33	0xbdc0472b	-0.09388574
34	0x3f16e81d	0.58947927
35	0x3f369454	0.7132008
36	0x3f22369c	0.6336458
37	0x3f4cdcd7	0.80024475
38	0x3f2f1183	0.68386096
39	0x3dcfafec	0.10140976
40	0x3f172b9d	0.59050924
41	0xbc4d154b	-0.012517284
42	0x3f1adaf9	0.60490376
43	0x3f41697c	0.7555158
44	0xc124b9fb	-10.295405
45	0x3f350b05	0.7071994
46	0x3f3fa000	0.74853516
47	0x3d66fcb1	0.05639333
48	0x40399011	2.899418
49	0x3f3d608d	0.7397545
50	0x3f235ae2	0.6381055
51	0x3f31e7d0	0.6949434
52	0x3f57143f	0.8401527
53	0x3f135f03	0.5756685
54	0x3f3f9211	0.74832255
55	0x3f2c87a0	0.6739445
56	0x3f1977f6	0.5994867
57	0x3f4e78b9	0.8065296
58	0x3cc60f92	0.024177346
59	0x3f424069	0.7587953
60	0x3f232ba1	0.6373845
61	0x404f5c3e	3.240005
62	0xbc8a95f5	-0.016917208
63	0x3c255ef8	0.010093443
64	0x3f49a231	0.7876311
65	0x3f21dbaa	0.63225806
66	0x3f30a7aa	0.69005835
67	0x3f3fd87d	0.7493971
68	0x3f561bf4	0.83636403
69	0x3d35fd29	0.044430885
70	0x3f21e85e	0.6324519
71	0x3f51bab3	0.81925505
72	0x3f1a6beb	0.6032092
73	0xbd88d0a9	-0.06680424
74	0x3f49b437	0.7879061
75	0x3f3ce003	0.73779315
76	0x3f2b43d5	0.6690038
77	0x3f386552	0.720296
78	0x3f481ffd	0.7817381
79	0xbd81cd6d	-0.0633801
80	0x3daf4d06	0.08559613
81	0x3f58958e	0.846032
82	0x41948bc9	18.568254
83	0x3f5b6b8a	0.85710967
84	0x3f25853d	0.6465643
85	0x3f332862	0.69983494
86	0x3f530d1e	0.8244189
87	0xbdd6ba67	-0.10484772
88	0x3f202273	0.62552565
89	0x3f2393d4	0.6389744
90	0xbd0bb976	-0.034112416
91	0x3f2303cf	0.63677686
92	0x3f3f5e2a	0.7475306
93	0x3f463c24	0.7743552
94	0xbd01a701	-0.031653408
95	0x3f45865c	0.7715814
96	0x3f4b1fad	0.7934521
97	0xbd8d6dfa	-0.06905742
98	0x3f4f1d3f	0.80904
99	0x3f45c00b	0.7724616
100	0x3f423e4d	0.75876313
101	0x3f41d0e7	0.75709385
102	0x3f371741	0.7151986
103	0xbdd6c71d	-0.104871966
104	0x3f346a27	0.70474476
105	0xbd99b758	-0.07505673
106	0x3f21c8c1	0.6319695
107	0x3f316288	0.6929097
108	0xc126b81f	-10.419951
109	0x3f403b33	0.7509033
110	0x3f1c0cc8	0.60957
111	0x3d1d3f24	0.038390294
112	0x403b6b99	2.9284422
113	0x3f47f8f9	0.7811428
114	0x3f49c0c5	0.7880977
115	0x3f234339	0.6377445
116	0x3f35c206	0.7099918
117	0x3f3b0519	0.73054653
118	0x3f36dea6	0.71433485
119	0x3f3fbe77	0.749
120	0x3f24371f	0.6414661
121	0x3f1440bf	0.57911295
122	0xbdb552f3	-0.08853712
123	0x3f32aa47	0.6979107
124	0x3f438cc8	0.7638669
125	0x404be60e	3.1859164
126	0xbd830e6d	-0.06399236
127	0xbdebe7c1	-0.11518813
128	0x3f1ba566	0.60799253
129	0x3f20264d	0.6255844
130	0x3f4a2b03	0.7897188
131	0x3f46fc1a	0.77728426
132	0x3f541a81	0.8285294
133	0xbd564708	-0.052313834
134	0x3f352e9f	0.70774263
135	0x3f356a01	0.70864874
136	0x3f49b1e5	0.7878707
137	0x3cb19aba	0.021680225
138	0x3f130a9c	0.57438064
139	0x3f24004d	0.6406296
140	0x3f484265	0.7822631
141	0x3f5411a0	0.82839394
142	0x3f416cec	0.75556827
143	0x3de846cd	0.11341629
144	0x3e0bd940	0.13657093
145	0x3f497b20	0.787035
146	0x41943b03	18.528814
147	0x3f350e32	0.70724785
148	0x3f41527f	0.75516504
149	0x3f4b7cda	0.79487383
150	0x3f522f7a	0.82103693
151	0x3d694a06	0.05695536
152	0x3f4fc2b8	0.8115649
153	0x3f25bf3e	0.6474494
154	0x3d2cca12	0.042184897
155	0x3f4e8287	0.8066792
156	0x3f196ef7	0.59934944
157	0x3f2c314e	0.67262733
158	0xbdbf8217	-0.093509845
159	0x3f45cb0c	0.7726295
160	0x3f48f1a7	0.7849373
161	0x3df53de0	0.11974692
162	0x3f43510c	0.7629554
163	0x3f311b84	0.6918261
164	0x3f3ebff1	0.7451163
165	0x3f408fe2	0.7521955
166	0x3f1d8715	0.61534244
167	0x3c58873e	0.013215838
168	0x3f4ea09a	0.8071381
169	0xbdc8d118	-0.098055065
170	0x3f49e4af	0.7886457
171	0x3f2a73b7	0.66582817
172	0xc125b29a	-10.356104
173	0x3f16789e	0.587778
174	0x3f3cd7e8	0.73766947
175	0xbdbb1ce4	-0.0913637
176	0x40434b79	3.0514815
177	0x3f3c5cf3	0.7357933
178	0x3f3d153d	0.7386053
179	0x3f2593a6	0.6467842
180	0x3f1b4e9f	0.6066684
181	0x3f1d8149	0.615254
182	0x3f16aa20	0.5885334
183	0x3f3ca150	0.73683643
184	0x3f4082e0	0.751997
185	0x3f299ba2	0.662531
186	0xbd359e8f	-0.044340666
187	0x3f4113ab	0.75420636
188	0x3f37e320	0.7183094
189	0x40513349	3.2687552
190	0x3e29e5f7	0.16591631
191	0xbd0c965d	-0.034323085
192	0x3f3ebd12	0.7450725
193	0x3f1cbf72	0.6122962
194	0x3f1e4dd4	0.61837506
195	0x3f3eb329	0.74492127
196	0x3f221953	0.6331989
197	0x3d407531	0.046986762
198	0x3f20d749	0.628285
199	0x3f3db23f	0.74100107
200	0x3f475c80	0.7787552
201	0x3d6f817d	0.0584731
202	0x3f1e326e	0.617957
203	0x3f369229	0.7131677
204	0x3f20c175	0.6279519
205	0x3f2dd859	0.67908245
206	0x3f1b0067	0.6054749
207	0xbd830357	-0.063971214
208	0xbca4dab7	-0.020123823
209	0x3f37b0c0	0.71754074
210	0x4193d99e	18.481258
211	0x3f50adb0	0.81515026
212	0x3f1c3c4f	0.61029524
213	0x3f513999	0.8172851
214	0x3f49809f	0.78711885
215	0xbddda0bd	-0.10821674
216	0x3f52959a	0.82259524
217	0x3f3ff65e	0.749853
218	0x3d420a5b	0.047373157
219	0x3f19a5f1	0.6001883
220	0x3f33a093	0.7016689
221	0x3f4f89f9	0.81069905
222	0xbdb9495a	-0.09047194
223	0x3f3081ae	0.68947875
224	0x3f3a0194	0.7265866
225	0xbc414316	-0.01179578
226	0x3f1664d9	0.5874763
227	0x3f14481c	0.5792253
228	0x3f1d1cb1	0.61371905
229	0x3f52b51a	0.8230759
230	0x3f2ea951	0.68227106
231	0xbcb8f1d2	-0.022576246
232	0x3f3ab649	0.72934395
233	0x3e07e3e9	0.13270535
234	0x3f336939	0.7008243
235	0x3f4e7d6c	0.8066013
236	0xc12524cb	-10.321483
237	0x3f3a52c5	0.72782546
238	0x3f22c224	0.63577485
239	0xbd3f2d0e	-0.046673827
240	0x403defe0	2.9677658
241	0x3f1eba0d	0.6200264
242	0x3f3a2447	0.72711605
243	0x3f1e6e2a	0.61886847
244	0x3f223ec2	0.6337701
245	0x3f2e831d	0.68168813
246	0x3f40d3c7	0.75323147
247	0x3f43acb3	0.76435393
248	0x3f4491f0	0.7678518
249	0x3f366d8c	0.71260905
250	0x3df8409d	0.12121699
251	0x3f24698f	0.6422357
252	0x3f44db04	0.7689669
253	0x4049688d	3.1470063
254	0xbd41a97d	-0.047280777
255	0x3d9cfab7	0.076650076

bias f4 [32]
0	0xbf60240c	-0.87555003
1	0xbf6bf12a	-0.9216486
2	0xbf643020	-0.8913593
3	0xbf76c1d7	-0.96389526
4	0xbf78951c	-0.9710252
5	0xbdc9616f	-0.09833037
6	0x3d338fc6	0.043838285
7	0xbf7dea57	-0.991857
8	0x3cbf7f6d	0.023376191
9	0xbf85bb06	-1.04477
10	0xbdc4ac28	-0.09603149
11	0x3d31867f	0.043341156
12	0xbdde2a80	-0.1084795
13	0x3d2b96d7	0.0418919
14	0x3dad48da	0.08461161
15	0xbf619825	-0.8812278
16	0xbc6446d5	-0.013932903
17	0xbf686db6	-0.90792406
18	0xbdba6aa3	-0.091023706
19	0xbd894b1e	-0.067037806
20	0xbf455f3f	-0.7709846
21	0x3d5e78e2	0.0543145
22	0xbd92db4f	-0.07170736
23	0xbf7f14c7	-0.9964108
24	0x3d580921	0.05274308
25	0xbd94f192	-0.072726384
26	0xbf7d5a34	-0.98965764
27	0xbf6c6528	-0.9234185
28	0xbd31359c	-0.043264017
29	0xbf55bd1d	-0.8349169
30	0xbf381cf7	-0.71919197
31	0xbc170a10	-0.009218708

weight f4 [1, 32]
0	0x3faad803	1.3347172
1	0x3fa4e6d8	1.2882948
2	0x3fae39a3	1.3611339
3	0x3faf23cb	1.3682798
4	0x3fae9868	1.3640261
5	0xbcd2b54a	-0.025721211
6	0xbda2f18d	-0.079562284
7	0x3fb0dc8b	1.3817304
8	0xbe233efb	-0.15941994
9	0x3fab4869	1.3381473
10	0xbd443059	-0.04789767
11	0xbd4dbce8	-0.050228983
12	0xbe322934	-0.1739853
13	0xbe0531fb	-0.13007347
14	0xbca17ce2	-0.01971287
15	0x3fb19348	1.3873072
16	0xbe1c86ba	-0.15285769
17	0x3faf7d8f	1.3710192
18	0xbca2406a	-0.019806106
19	0xbe075a28	-0.13217986
20	0x3f9ea747	1.2394799
21	0xbcefc52e	-0.029268827
22	0xbde93bd5	-0.11388365
23	0x3faf7176	1.37065
24	0xbe15128c	-0.14557856
25	0xbdfb724c	-0.1227766
26	0x3fadfba2	1.3592417
27	0x3faa745a	1.3316758
28	0xbe1c7aab	-0.15281169
29	0x3f9d81db	1.2305254
30	0x3fa085ad	1.2540795
31	0xbd06b241	-0.03288484
